data/models/conv_lstm.pt (torch_old, 583847 bytes, 17 tensors)

conv.weight f4 [1, 1, 8]
000000 a9 e6 e9 bc 15 ed 97 be 30 1b 83 bc b2 d4 89 bd
       -0.02855237 -0.29673067 -0.016004175 -0.067300215
000010 90 f8 c2 be ee 90 b9 bc e0 c8 73 3e ec a4 dd be
       -0.38080263 -0.022652116 0.23807096 -0.43289888

rnn.weight_ih_l0 f4 [136, 1]
000000 2d d4 26 bd 18 b3 d0 b9 bf 90 e1 3d 55 23 19 3e
       -0.04072969 -0.00039806287 0.11013936 0.14954884
000010 58 51 0b 3e 58 a6 bf bd 93 da 87 bd 86 f4 1a be
       0.13605249 -0.093578994 -0.066334866 -0.15132341
000020 dd cc 8a 3d fe 47 80 3d d1 27 f6 3d 39 2c 15 be
       0.06777356 0.062637314 0.12019313 -0.14567651
000030 9e b8 ed bd 6d f3 07 bd cf 37 5e 3d e9 a8 14 3e
       -0.116074786 -0.033191133 0.054252442 0.14517559
000040 96 e6 89 bd fb c6 f3 3d 2c ae cd bd 6c aa 19 3e
       -0.06733434 0.11903187 -0.10042986 0.15006417
000050 50 7e f0 3c 5d 10 02 3e 2a 38 b5 3d 44 e3 b5 bd
       0.029357105 0.12701555 0.08848603 -0.08881238
000060 25 45 f4 bd b1 75 be bc b4 af 16 3e 29 df 3d bd
       -0.11927251 -0.023249479 0.14715463 -0.0463554
000070 ac 35 8f 3d c7 e0 56 bd a8 6b a0 3d 6f 18 25 3e
       0.06992659 -0.052460458 0.07833034 0.16122602
000080 02 bd e6 3d 08 6b 1e be 70 d3 09 3e d3 11 98 3d
       0.11266519 -0.15470517 0.13459563 0.07425275
000090 72 61 08 3e d1 b7 62 bd 27 e1 69 bc aa fc a2 bd
       0.13318422 -0.055351082 -0.014274872 -0.07958348
0000a0 1e a9 26 3e dd af 9e 3d 35 2c a9 bd 9b 5d 85 bb
       0.1627545 0.07748387 -0.08260385 -0.0040699965
0000b0 89 1f 53 3d 94 84 68 bc 37 e6 8a 3d 75 18 2b 3e
       0.051543746 -0.014191765 0.06782191 0.16708548
0000c0 0d c8 cd bc ed 5b b7 bd 92 ae 13 be 77 c1 16 bb
       -0.025119806 -0.0895308 -0.14422062 -0.0023003498
0000d0 b7 58 2a be cd 96 39 3d 20 52 04 be 94 91 d1 bd
       -0.16635405 0.04530983 -0.12921953 -0.10232845
0000e0 28 a2 ea bd 2e af e3 3d d2 2a 21 3e 2f 25 94 3d
       -0.1145671 0.11117397 0.15738991 0.07233655
0000f0 29 8f 2b be 16 a6 1d 3e 32 61 ef 3d 77 c7 ec bd
       -0.1675383 0.15395388 0.116884604 -0.115614824
000100 3b cf d3 3d 22 64 cf 3c e3 c3 ab bd 92 64 0e 3e
       0.103422605 0.025316302 -0.08386972 0.13905552
000110 1f 3b ff bd 44 51 04 be 8a ad a9 bd 6d 61 e5 3d
       -0.12462448 -0.12921625 -0.08285053 0.11200223
000120 f7 5f 08 be 04 4e f6 bd 43 f3 d5 bd d4 a8 cb 3d
       -0.13317858 -0.12026599 -0.10446789 0.09944311
000130 8a b9 ca bc c7 49 d0 3d d8 1e e5 bd 77 35 a8 3d
       -0.024746675 0.10170322 -0.111875236 0.082133226
000140 69 71 20 3e e8 9d 6f bd e7 da f1 bd ea 16 e5 bc
       0.15668263 -0.0585002 -0.118093304 -0.027965028
000150 5a 2d 6a bd bf 67 27 bd 31 0d 8e bd 12 85 ed 3c
       -0.057172157 -0.040870424 -0.0693611 0.028994117
000160 94 c7 e1 3d 44 05 b4 3d 03 b8 1f bd 9a b3 82 3d
       0.11024395 0.08790067 -0.038993847 0.063819125
000170 ad fd 25 be 8d 70 d1 bc 4e ee 69 bd b5 ec 1f 3e
       -0.16210051 -0.025566364 -0.05711203 0.1561764
000180 d3 15 a6 3c f2 1c 07 3d b8 3d 43 bd 7e 43 8c bc
       0.020274078 0.03298659 -0.04766628 -0.017122027
000190 76 06 4c 3c 23 73 a2 3d 96 c7 0f be 37 b2 16 bd
       0.012452712 0.07932117 -0.1404098 -0.036791053
0001a0 12 25 4f bd cb c0 c6 3d ad ff 88 3d 00 43 2c 3d
       -0.050572462 0.09704741 0.06689391 0.042056084
0001b0 81 0d 8a 3d 72 2b ca bd 6d b0 9d bd d5 ca 66 3d
       0.06740857 -0.09871568 -0.07699666 0.05634578
0001c0 08 3b 71 bd ae 26 ef bd 4a 0b e9 3d 41 5f db bd
       -0.058894187 -0.116772994 0.11379106 -0.107115276
0001d0 1f b6 e3 3d 63 42 e6 3d 28 4a 9c 3d 19 86 80 3d
       0.11118721 0.11243131 0.07631332 0.06275577
0001e0 07 58 17 be 0c 87 f3 3d d7 c3 25 3d 24 6e 40 bd
       -0.14779674 0.118909925 0.04046997 -0.04698004
0001f0 5d b8 94 bd 98 78 30 3c 27 d7 9b bd 13 a7 2a be
       -0.07261727 0.010770939 -0.076093964 -0.16665296
000200 4a 71 73 3d 62 43 32 bc 25 55 1c bd e0 de fe 3d
       0.059434213 -0.010880323 -0.038167138 0.12444854
000210 e6 65 e0 3d 28 cb 02 3e 09 29 e7 3c bb ba e6 bd
       0.109569356 0.1277281 0.02821781 -0.11266085

rnn.weight_hh_l0 f4 [136, 34]
000000 08 2f f3 bd bb c5 a1 bd c8 0e a1 bd f1 01 04 be
       -0.11874205 -0.07899042 -0.078641474 -0.12891366
000010 b4 b3 65 bc 78 a5 7a bc 0d ca 8c bd e5 94 64 3d
       -0.014019895 -0.01529824 -0.06874476 0.05580606
000020 e9 8f 11 3b 28 ae fa bd 3b 3d 2d 3e 98 87 a7 3c
       0.0022211021 -0.12240249 0.16917889 0.020450398
000030 b6 d0 24 be 2d e9 7c 3d ec 56 c5 bd 28 ad c1 3d
       -0.16095242 0.06174581 -0.0963572 0.09456855
000040 8e e6 b7 bc f5 a3 28 3d 33 a5 3d 3d d7 0e fd 3b
       -0.022448804 0.041171987 0.046300124 0.0077227163
000050 17 af f3 3d 80 12 76 3d 99 22 28 bd a4 ba 57 3d
       0.1189863 0.060076237 -0.04104862 0.05266823
000060 b1 f4 f5 3d 7c 86 18 be 1c c4 aa bc d9 68 6f 3d
       0.12009562 -0.14895052 -0.020845465 0.0584496
000070 d9 4e 19 3c 34 0c d2 b9 4f 56 2b 3e d4 55 72 ba
       0.009357178 -0.00040063413 0.16732143 -0.0009244357
000080 ff da bb bd 59 5a 00 3d 7d 58 0a 3e cf 3e 98 bd
       -0.091726296 0.031336162 0.13510318 -0.07433855
000090 25 f9 03 be f3 4c 22 bb 08 ce 21 be ca 1d 16 3e
       -0.1288801 -0.0024765104 -0.15801251 0.14659801
0000a0 3d c1 14 bd 8d 75 a0 ba c4 17 a8 3c 7d d2 01 3d
       -0.0363171 -0.0012242064 0.020519145 0.031694878
0000b0 52 03 05 3e e3 12 df 3d 57 76 24 3b ea 1a e0 bd
       0.12989548 0.10892274 0.002509495 -0.109426335
0000c0 56 e4 2b 3e 10 b9 f9 bd c5 28 50 bd 9c d3 71 3d
       0.16786322 -0.12193501 -0.05082013 0.059039697
0000d0 d9 f4 e5 bd df b1 03 be 33 da 9e bd e9 36 c1 bd
       -0.112283416 -0.12860821 -0.07756462 -0.094343014
0000e0 a8 3f a0 bd 8c 5f c5 3d 48 62 98 3d 56 0c ab bd
       -0.078246415 0.09637365 0.07440621 -0.08351962
0000f0 14 86 07 be 6c d1 07 be 56 cc 26 be fa d3 aa bb
       -0.1323474 -0.13263482 -0.16288885 -0.005213258
000100 2b 28 a1 bd 6e b1 d0 ba c5 ba a4 3d ff 2a 95 3d
       -0.078689896 -0.0015922019 0.08043436 0.072835915
000110 2f cd 9f 3d 50 47 12 be 3c de 20 bd 4d 5e 2b bd
       0.078028075 -0.14285016 -0.03927444 -0.04183798
000120 e8 68 23 be df e7 b6 bd cc 4a d1 bd 59 cd b2 3d
       -0.15957987 -0.08930945 -0.102193445 0.08730573
000130 ab c6 bf bd 7a 9c e0 3d df c7 b8 3d 5e 17 2a 3e
       -0.09364065 0.109673455 0.090224974 0.16610476
000140 de f7 1e be d6 97 11 be c0 83 6e 3d 72 cc e3 bd
       -0.15524241 -0.14218077 0.058231115 -0.11122979
000150 fe fd 80 3d d6 a7 2a 3e 3c 95 f4 3d 62 18 0c 3e
       0.06298445 0.16665587 0.11942527 0.13681176
000160 30 7d 11 3e 28 56 73 bd 44 be 0b 3e 86 1b 18 3e
       0.14207911 -0.059408337 0.136468 0.1485425
000170 d2 e9 0c be 48 91 14 be a2 95 0a be 53 8d c0 bd
       -0.1376107 -0.14508545 -0.13533643 -0.094019555
000180 7e 74 71 bd d3 9f 35 3c 4f 7a 56 bc fb 06 fa bd
       -0.058948986 0.011085468 -0.013090684 -0.12208363
000190 cc 84 bf bc 2d 9d e5 3d 9a c3 11 3a 36 2c e7 3d
       -0.023378752 0.112116195 0.0005560458 0.112877294
0001a0 d0 6a a2 3c 27 86 d9 3c 01 4f 0f be 56 a5 b9 bd
       0.019826323 0.026553227 -0.13994981 -0.090647385
0001b0 bb 1c e6 3d ab 2c e9 3d 1a e5 e3 bd bc 25 28 3c
       0.11235949 0.11385473 -0.11127682 0.010262903
0001c0 65 9f 2a be a7 14 9a bd 30 90 fa bd 66 96 c2 3c
       -0.16662367 -0.0752347 -0.12234533 0.023753356
0001d0 cf 8b 7a 3d 63 88 a1 bc be 85 12 bd 5e e3 f6 3d
       0.061168488 -0.019718355 -0.035772078 0.120550856
0001e0 97 c2 a2 bd 9c 42 01 3d 72 b1 94 3d e0 2f 1c 3d
       -0.07947271 0.031557664 0.072604075 0.038131595
0001f0 78 c0 19 be b1 f9 20 be 17 b8 92 3d 59 dd 93 bd
       -0.15014827 -0.1572025 0.071640186 -0.07219953
000200 2c cc d7 3d 93 5f cc bd 2b 46 0e 3e f6 6e 24 3e
       0.105369896 -0.09979167 0.13893954 0.16057953
000210 0c 9b ec bd 0c 0a a3 3d f3 17 e1 3d 67 78 d1 bb
       -0.1155301 0.07960901 0.10990896 -0.006392527
000220 f6 29 fd 3d 1a c6 1a bd bd ea 88 3c 4b 32 01 3d
       0.12361519 -0.03778658 0.016713494 0.031542104
000230 ff 51 0f be bb 67 f2 3d 2e d1 2a be d8 21 6b 3d
       -0.13996123 0.11836191 -0.16681358 0.057405323
000240 fa af 90 3d 20 18 be 3d 82 00 e6 bb 06 73 21 be
       0.07064815 0.09281945 -0.0070191035 -0.15766534
000250 25 ee 17 be 28 9d 2d 3e 72 cf d8 bd a0 2e 1e bd
       -0.14836939 0.16954482 -0.10586442 -0.038618684
000260 86 7f 42 3c c1 d7 97 3c fd 4b 02 3d 0e c8 87 bd
       0.011871224 0.018535497 0.03181075 -0.06629954
000270 f3 f4 9e bc 16 d3 e8 bd ec 06 b8 bd 5a 9e 40 bc
       -0.01940391 -0.113683864 -0.08985695 -0.011756504
000280 0f e7 02 be 25 7b 0f 3e 3c 41 80 bd 92 85 90 3c
       -0.12783454 0.1401182 -0.062624425 0.017641816
000290 2b 96 29 be 6f 87 09 3e 05 c6 12 3e b0 19 0e 3e
       -0.16561191 0.1343057 0.14333351 0.13876987
0002a0 ac bb 22 3e 3f 4b 2b be 78 c4 0a bd 10 90 7d bc
       0.15891904 -0.16727923 -0.033878773 -0.015476242
0002b0 ed 66 c9 bd b0 f5 9c bd 34 8e 9b 3d fa 1b 08 be
       -0.09834085 -0.07664049 0.075954825 -0.13291922
0002c0 7c 09 84 3d 3a fb 85 bd 37 b7 87 bd 91 2c 33 3c
       0.064471215 -0.06542058 -0.06626742 0.010935918
0002d0 07 1c ab bd ee 16 dc bd 5f d6 cf bd d7 f2 25 bd
       -0.08354955 -0.10746561 -0.1014831 -0.040514793
0002e0 5b dd 12 be 95 c0 f3 3d c3 15 0e 3e 84 b7 27 be
       -0.14342253 0.119019665 0.13875489 -0.163786
0002f0 b7 81 25 3e fb fb 74 bd af 7c bf bd 1e 09 24 be
       0.16162764 -0.05981062 -0.093499534 -0.16019103
000300 85 a7 26 be 06 d1 d7 bd 75 55 08 be 05 d8 ab bd
       -0.16274841 -0.10537915 -0.1331385 -0.08390812
000310 a4 b1 cb bd 2c c3 03 3d a8 c9 4d bd c2 14 e5 bd
       -0.09945992 0.032168552 -0.050241143 -0.111856
000320 b1 8c e3 3b 81 19 1d be 98 28 48 3d e2 a1 cf 3d
       0.006944262 -0.1534176 0.04886684 0.101382986
000330 b9 54 ed 3d 06 41 88 bd 70 94 29 3d d3 5a 0f bd
       0.11588425 -0.06653027 0.041401327 -0.034998726
000340 f3 38 bd bd b0 cc 0a be de dc fb 3c 5f 3e e8 3d
       -0.09239378 -0.13554645 0.030744966 0.11340021
000350 79 bb c2 bd 7a fc d4 3d 8e fb 31 3d 55 b0 13 be
       -0.09508414 0.103997186 0.043452792 -0.14422734
000360 50 02 ce 3d 34 ea 06 be 10 78 57 bd da ab 44 3d
       0.10059035 -0.13175279 -0.052604735 0.048015453
000370 73 4e 93 bd 0f 64 dc 3d ca 34 09 3e df d3 1e 3e
       -0.071926974 0.10761272 0.13399044 0.1551051
000380 a4 85 fc bd fc d4 98 bc a0 d2 29 bd 68 2d 0d bd
       -0.123301774 -0.018656246 -0.041460633 -0.03446713
000390 3a 6f 11 be 1a 6d 97 bd ae 8b a0 bc 63 c6 b8 bd
       -0.14202586 -0.07393856 -0.019597854 -0.09022214
0003a0 4a cf 23 be 11 5c 1d be 21 f7 8e bd b1 3b d2 bd
       -0.15997043 -0.15367152 -0.0698073 -0.102652915
0003b0 8f 74 14 3e 5d 39 de 3d 13 ca de 3b 3f e1 aa bd
       0.14497589 0.10850785 0.0067989915 -0.083437435
0003c0 d5 3f bc 3d 21 6f c7 bd 73 31 0e be 6e 85 ac bd
       0.091918625 -0.09737993 -0.13886051 -0.08423887
0003d0 2f a8 a2 3d 38 f4 29 3d cb 47 95 3c c9 da 01 bc
       0.07942235 0.04149267 0.01822271 -0.007925698
0003e0 38 5a ef 3c a4 7f 06 be 40 2d 77 bd e3 17 fd bc
       0.029217824 -0.13134629 -0.06034589 -0.03089518
0003f0 bd 63 34 3d d5 7a 0d 3e b0 39 b5 3d 94 b0 fb 3d
       0.04404043 0.13816388 0.08848894 0.12289539

rnn.bias_ih_l0 f4 [136]
000000 90 60 c2 3c 74 fa 10 be 1c 1f 3e 3c e5 ae 2a bd
       0.023727685 -0.1415804 0.011604097 -0.0416707
000010 eb a4 d7 3d 7b 2f ee 3c fe 2b 0c 3b 1d 3d 59 3c
       0.105295025 0.029075375 0.0021388526 0.013259199
000020 b6 99 4b bd 82 a9 b7 bd 0f 69 b6 bd 64 47 7d bd
       -0.049707137 -0.08967878 -0.08906757 -0.06183566
000030 ba 3d 06 bd 51 fe 95 bc a1 04 bf bd 20 bd 26 be
       -0.03277371 -0.018309744 -0.09327055 -0.16283083
000040 1b e5 7c bd df 55 1b 3e ca 58 cb bd 1c 1d 4e bc
       -0.06174193 0.15169476 -0.099290445 -0.012580182
000050 36 29 50 3d a5 e8 5e bd 61 fa f6 3d 96 65 5a 3d
       0.05082055 -0.054421086 0.12059475 0.053319536
000060 9c 47 26 3e 8b 8f 9f 3d e7 7b 10 3e 67 42 bc bd
       0.16238254 0.077910505 0.14109765 -0.09192353
000070 08 35 9a bd af db e3 bc 6e 4c 83 bd 21 ca da bd
       -0.07529646 -0.027814714 -0.06411062 -0.10683084
000080 e6 68 d9 bd 65 d2 be bc b3 dd 21 be ba f9 24 3d
       -0.10615711 -0.023293683 -0.15807228 0.04027722
000090 7d 92 b9 3d 25 5a cd 3d 8c 7b 2e bd 9b 3d df bd
       0.090611435 0.10026959 -0.042598292 -0.10900422
0000a0 d6 da f6 bd fd 53 92 bd ee f3 16 3e 01 7f 3a 3d
       -0.120534584 -0.07144926 0.1474149 0.045531277
0000b0 69 a6 ce 3d d5 e1 84 3d 2c 09 90 bd a9 64 08 be
       0.10090334 0.064883865 -0.070329994 -0.13319649
0000c0 ff d2 33 3c a4 4e 10 3d 49 d4 0d be 08 b8 33 bd
       0.010975598 0.035231248 -0.13850512 -0.043876678
0000d0 2d ae b0 3d 31 00 f5 ba 9e 03 0c 3e a3 53 0e 3d
       0.086269714 -0.0018692074 0.13673255 0.03474773
0000e0 f8 f7 df bc a1 b2 0b 3e 36 5f 1f 3a eb 5f d0 3d
       -0.02733992 0.1364236 0.0006079556 0.10174545
0000f0 85 2c 9f 3d f1 c0 14 be c6 b8 c9 bd a9 3b 7e 3d
       0.07772163 -0.14526726 -0.09849696 0.062068615
000100 dd ed 0c be b9 39 b2 bd 36 ae bb bd 65 a9 9e 3d
       -0.13762613 -0.08702416 -0.091640875 0.07747153
000110 c8 94 53 bd 19 c6 2f 3e 79 48 68 bd 50 b4 b0 bd
       -0.05165556 0.17165412 -0.05670974 -0.08628142
000120 df 31 3d 3d 4a 0a 1b 3e ae 6e f1 bc ab 4c 17 be
       0.04619014 0.15140644 -0.029471722 -0.1477534
000130 76 22 68 bd 55 7a fa bd eb 8b 09 3d 5f ea b6 bd
       -0.05667349 -0.12230364 0.0335807 -0.089314215
000140 91 44 57 bd e9 ed d5 3d 1b 0a 18 3e 6e 88 16 3e
       -0.052555624 0.104457684 0.14847605 0.14700481
000150 a1 16 a2 bd 96 40 31 3d 60 74 e8 3b d6 a4 06 be
       -0.07914472 0.043274485 0.007093951 -0.13148817
000160 f0 86 28 bd 99 59 65 bd 79 35 18 be 0f 89 40 bd
       -0.04114431 -0.05599365 -0.14864148 -0.04700571
000170 f3 5f 0c be 05 c7 70 3d ae ed c7 bd 44 a4 cf 3d
       -0.13708477 0.05878355 -0.09762131 0.10138753
000180 19 72 0a be 11 04 6a bd 53 53 28 be b4 e1 e3 3d
       -0.13520087 -0.057132784 -0.16438036 0.11127034
000190 2d b1 0a be 5b c5 11 3e 2d 34 88 3d 12 21 05 3e
       -0.1354415 0.14235441 0.06650577 0.13000897
0001a0 0b 3a 97 bd 44 c6 c8 bd 92 ad 0e 3d 5d a8 14 be
       -0.07384118 -0.09803441 0.0348335 -0.1451735
0001b0 e1 49 58 3d 18 89 cb bc 12 37 6c bd 95 0a 89 3d
       0.05280483 -0.024845645 -0.057669707 0.066914715
0001c0 9b 32 2f be f8 3d db bd 40 5f 93 bd 49 85 8a 3d
       -0.17109148 -0.10705179 -0.07195902 0.067637034
0001d0 32 0c e7 bd 5c 9d 09 be 6f df 50 bd 16 82 fa 3d
       -0.11281623 -0.13438934 -0.050994333 0.12231843
0001e0 d7 0a 00 be a4 d1 ac 3d ee 9d 1c bd ec 39 e4 3d
       -0.12504135 0.08438423 -0.03823655 0.1114386
0001f0 74 8d 3a bc 11 c5 04 be c6 42 d4 3d 60 96 81 bd
       -0.011386264 -0.129658 0.103642985 -0.0632751
000200 05 9f ce bc 04 4a ef bc 0f a1 e0 bd 69 9f 2a be
       -0.02522231 -0.029210098 -0.109682195 -0.16662373
000210 21 5b 13 be 9f 23 8d bc fa cf b9 bd 4e 16 d5 bb
       -0.14390232 -0.0172289 -0.090728715 -0.006502903

rnn.bias_hh_l0 f4 [136]
000000 7b cc 63 3c 98 dc 20 bd e0 50 cb bd 1b a4 0d be
       0.013903732 -0.039272875 -0.09927535 -0.13832133
000010 c1 0d b5 3d ef 73 1d be 22 f1 12 be dc f0 9a bd
       0.08840514 -0.15376256 -0.14349797 -0.075654715
000020 76 83 ac 3d f4 e7 58 3c 80 75 86 bd 10 b7 71 3d
       0.08423512 0.013238896 -0.0656538 0.059012473
000030 00 72 60 bd 03 61 19 bc 02 d5 10 be 80 c8 25 bd
       -0.05479622 -0.009361508 -0.14143756 -0.040474415
000040 0b 73 04 3e 15 e0 2e be dd 6e 35 3d ea d4 3d bd
       0.1293451 -0.17077668 0.04429518 -0.04634563
000050 33 40 02 3e 9b ca 53 bd d5 6b f0 3d a8 19 aa bd
       0.12719803 -0.05170689 0.11739317 -0.08305675
000060 84 6a 08 3e 22 7e 1f 3e 1d 9c ee bd 77 88 12 3e
       0.13321882 0.1557546 -0.1165087 0.1430987
000070 14 ff 3f bd 88 ae 94 3d a6 cf 22 be 36 f2 12 3d
       -0.04687412 0.07259852 -0.15899524 0.03587552
000080 bb fb 1f be 41 76 29 3c 8a c2 ea bd d2 37 08 3e
       -0.15623371 0.010343135 -0.11462887 0.13302544
000090 e3 10 16 3d 47 ba 21 bd 0c 32 fd bd 3e 49 fe 3d
       0.0366372 -0.03948429 -0.12363061 0.124163136
0000a0 fc 5b 20 3e 88 cd 0f be ac 75 dc 3d 43 af 79 bd
       0.15660089 -0.14043248 0.10764632 -0.06095816
0000b0 a3 00 02 3d fe c3 cb 3c bc c8 23 3e 22 d5 ea bb
       0.03173889 0.02487373 0.15994543 -0.0071665207
0000c0 55 24 13 bc e0 3f 3c bd d6 2a a3 3b 3a 64 6a 3d
       -0.00898083 -0.045959353 0.0049794717 0.05722449
0000d0 09 6c 84 3d 4f c6 ab 3d c2 07 b2 bc e9 51 48 3d
       0.064659186 0.08387434 -0.021732215 0.04890624
0000e0 97 ac 13 be ac 1c 0a be 08 ad 22 be d9 e2 b4 3d
       -0.14421307 -0.134875 -0.15886319 0.0883233
0000f0 19 11 dd bd 51 26 9c bc 7a fa 2e 3d 88 98 2b be
       -0.10794277 -0.01906124 0.04271934 -0.16757405
000100 82 03 4f bd 29 86 ec 3d 40 6c 00 3e ce 1a 13 3d
       -0.050540455 0.115490265 0.12541294 0.035914235
000110 1f e6 b2 bd 02 d8 67 3d be 57 de bd bc 3e 9a bc
       -0.08735298 0.056602485 -0.10856579 -0.018828742
000120 c0 35 39 bd 2d 1e d3 bd 86 5e e4 bc 35 5d 0b bd
       -0.045217276 -0.1030849 -0.027877104 -0.034024436
000130 03 60 9f 3d 86 33 16 be 8c a7 0a be d8 d7 29 3e
       0.07781985 -0.14668092 -0.13540477 0.16586244
000140 9d 6a 6e bd 6f d3 a2 bd d8 c3 fc 3d 2b 20 bb 3d
       -0.058207143 -0.07950484 0.12342042 0.09136995
000150 97 42 e3 bd db 76 d7 bd c4 a8 1a 3e 2f 1e 1c 3d
       -0.110966854 -0.10520717 0.15103441 0.038114723
000160 a8 14 2b be 71 43 59 bd 98 43 d2 bd f4 9a 17 3e
       -0.16707098 -0.053042833 -0.10266799 0.14805204
000170 80 d7 9a 3c ca 80 fc bd 70 02 b6 3d 50 a6 80 3d
       0.018901587 -0.12329252 0.08887184 0.062817216
000180 a6 b8 f9 3c 5e 1c 92 3d 80 ab 89 bc 6f 0f 19 be
       0.030483555 0.07134317 -0.01680541 -0.14947294
000190 fe 71 9e 3d b6 6b fe bd 90 1a 27 be 04 29 30 bd
       0.07736586 -0.12422888 -0.16318727 -0.043007866
0001a0 a8 36 04 be 3a 95 e2 bc 3b cf b9 bb 13 8c db 3c
       -0.12911475 -0.027659047 -0.0056704558 0.026800191
0001b0 38 4a fc bd 96 20 bb 3d 02 2f 71 bd 32 c9 0c bb
       -0.123188436 0.09137075 -0.05888272 -0.0021482226
0001c0 ae 8a cc 3d 8a b8 3b bd 00 28 c4 3d ed eb 17 3e
       0.099873886 -0.045830287 0.09577942 0.14836092
0001d0 8f ea 1b be 6f 29 0c 3e ec 83 f6 3d ab fe 1f be
       -0.15226196 0.1368768 0.12036881 -0.15624492
0001e0 d9 42 09 be 93 d6 16 be 68 be b7 3d de f0 e2 3c
       -0.13404407 -0.14730291 0.08971864 0.027702745
0001f0 3c f3 18 3e c1 84 21 be b3 46 6d bc d7 b9 84 3d
       0.14936537 -0.15773298 -0.014482188 0.06480759
000200 95 bf 38 bd 86 19 a1 3d 7c 30 a0 bd a3 9e 93 bd
       -0.045104582 0.07866196 -0.07821748 -0.07207992
000210 f2 2d 99 bd 79 93 c5 bc 67 a2 1e 3e b5 6c aa 3c
       -0.074794665 -0.024118172 0.15491639 0.020803789

rnn.weight_ih_l0_reverse f4 [136, 1]
000000 0b e1 19 3c 00 f9 53 bd 1d 46 25 3e b3 d7 b9 bd
       0.009392033 -0.051751137 0.16140027 -0.090743445
000010 fe f4 b9 3d 59 9d 64 3b cd f3 0f 3e b7 81 25 be
       0.09079932 0.0034883826 0.14057846 -0.16162764
000020 bd f8 00 3e ee 8e 10 bd 06 04 ad 3d a6 72 65 3d
       0.12594886 -0.03529256 0.08448033 0.05601754
000030 3a f0 62 bd 66 3d bb 3d 6b ff 0f be 69 57 bb 3d
       -0.05540488 0.0914257 -0.14062278 0.091475315
000040 4c 90 a9 3d 1e b1 00 be f4 ba 26 be 42 f1 ad 3d
       0.082794756 -0.12567565 -0.16282254 0.08493282
000050 4c b2 2e be 3f f6 2b bc cc db cf 3d c1 ca 50 3d
       -0.17060202 -0.010495721 0.10149345 0.05097461
000060 46 98 73 3d 27 41 73 bd e7 f0 9c 3d 5d 42 a3 3c
       0.05947139 -0.059388306 0.07663136 0.019929105
000070 5d d0 1f be b0 76 76 bc 45 34 52 bc c3 ac 6a bc
       -0.15606828 -0.015042946 -0.012829845 -0.014323416
000080 b0 7e 32 3d b7 6a 17 be 2f 1d 18 be f0 c7 0b be
       0.04357785 -0.14786802 -0.14854883 -0.13650489
000090 93 0c 0c 3d ec f5 0a be 9c 14 14 be fe d6 a4 bd
       0.03419168 -0.13570374 -0.14460987 -0.08048819
0000a0 2b e1 51 bd 3a 5c c3 3d 1c ef 75 3d e6 bb 5f 3d
       -0.051240128 0.09539075 0.060042486 0.054622553
0000b0 b0 f1 ef bc 9c 2d 0f be 19 f9 d4 3d eb 24 48 3c
       -0.02929005 -0.13982242 0.10399074 0.012215833
0000c0 38 dd 8a bd 68 7e 9a 3d 03 4b ad 3d e1 54 9a 3d
       -0.067804754 0.07543641 0.08461573 0.075357206
0000d0 d2 bd a1 bd 3c f8 9f bb 11 0b 7e bd 50 73 13 3e
       -0.078975335 -0.0048818868 -0.062022272 0.14399457
0000e0 27 c8 d0 bc 2f 36 a0 bd aa 54 0d 3e 12 26 02 be
       -0.025486065 -0.07822835 0.13801828 -0.12709835
0000f0 98 32 02 3e 76 4a 07 bd d1 f2 2f 3e b0 21 13 3e
       0.12714612 -0.033029996 0.17182471 0.1436832
000100 de 1e 09 3b b6 4a 39 bc a5 25 ad 3d d2 7a 87 3c
       0.002092294 -0.011309316 0.08454446 0.016538057
000110 bb 93 31 3d 53 3e ec bd 8b aa 8e 3d 37 be 90 bd
       0.043353777 -0.11535325 0.06966122 -0.070675306
000120 c5 2b 3e bc 0f b6 06 be b1 d9 89 bc 5a cc d3 3d
       -0.011607115 -0.13155387 -0.016827436 0.10341711
000130 99 a8 90 3d 54 a6 b0 bd d0 b5 21 3e 17 82 3c 3e
       0.070634075 -0.086254746 0.15792012 0.18409
000140 0f a3 44 be 9f fd b5 bd fe b9 eb 3c 86 cb 30 bd
       -0.19202827 -0.08886265 0.028775211 -0.043162845
000150 57 fd 36 3e 9f de 00 be 01 a9 9e 3d b3 bf 13 be
       0.17870079 -0.12584923 0.07747079 -0.14428596
000160 5b df 87 3d 0f 3f 2e bd 3c c1 a1 3c 07 07 0c be
       0.066343985 -0.042540606 0.019745462 -0.13674556
000170 5f 46 39 3e 54 97 f7 bd 52 93 17 3e 58 09 33 3b
       0.1809325 -0.120894104 0.14802292 0.0027318802
000180 7e 84 91 3c a6 d7 64 3d 19 e6 ed 3d 9c fc 4b bb
       0.017763373 0.05586972 0.11616153 -0.0031125909
000190 af 4d bf bd a7 f8 f8 3d d8 be 6b 3d bf 95 f3 bc
       -0.09340989 0.12156802 0.05755505 -0.02973449
0001a0 f4 3c de 3c f1 47 26 be 89 1a cf bd 0b d5 03 3e
       0.027128674 -0.16238381 -0.10112483 0.12874238
0001b0 30 fd b0 3c 43 2f 05 bc 45 a6 44 3d a3 6d 32 3e
       0.021605104 -0.008128944 0.04801013 0.17424636
0001c0 c9 f5 d7 3d 07 7d da bd f4 a3 22 bd 34 ae 8c bd
       0.10544927 -0.10668378 -0.03970714 -0.06869164
0001d0 37 0c 63 3c 11 ac 3a bd 4e ad da bd 02 4a 70 bd
       0.013857893 -0.04557425 -0.106775865 -0.05866433
0001e0 64 aa a4 3d 80 46 44 3d e3 5f 94 bd ba 41 df 3c
       0.08040312 0.047918797 -0.072448514 0.02725302
0001f0 b9 de 0d be a6 2d 45 bd 8f 67 0c 3e c6 4e 0f be
       -0.13854493 -0.048139237 0.1371138 -0.13994893
000200 be a7 62 3c 96 df da bd de 00 14 3b 1f fd a8 bd
       0.013833938 -0.10687177 0.0022583525 -0.08251404
000210 46 e4 b9 39 ce 8b 15 3c 7d e7 83 bc 97 4a 27 be
       0.00035456027 0.00912757 -0.016101593 -0.16337048

rnn.weight_hh_l0_reverse f4 [136, 34]
000000 89 91 02 be 15 62 a0 3b 32 64 28 3e ba fe b8 3d
       -0.1275083 0.004894505 0.16444471 0.0903296
000010 f6 a5 b2 bd 25 c1 fc 3d e0 fa 0b bc 76 d3 69 3d
       -0.08723061 0.12341527 -0.0085437 0.05708643
000020 2d 90 9c bd 4a 1f df 3d 16 45 91 bc 20 1d 0f 3e
       -0.07644687 0.1089464 -0.017733138 0.13975954
000030 4f 71 21 3e 70 4e ba bd e2 2d 24 3e 60 b0 c6 3d
       0.1576588 -0.09096992 0.16033128 0.097016096
000040 b4 25 94 3c 9a 6c 83 3d ca ee ee bc b8 35 e2 bd
       0.018084385 0.064171985 -0.029166598 -0.11045402
000050 83 31 10 3e f5 9e 1f bd a9 d7 e8 bd 3f 5c ee bd
       0.14081387 -0.038969953 -0.11369259 -0.11638688
000060 52 1d 4f bc 2e cc 07 3d e6 02 69 3d 41 f2 6c 3d
       -0.012641268 0.033153705 0.05688753 0.05784822
000070 45 9f 10 be 92 48 08 3d 2a 14 e8 bc fa 52 58 bb
       -0.14123257 0.033272333 -0.028329927 -0.0033008442
000080 18 70 e2 3d a5 d5 77 bd 1c 69 fb 3c b0 5f 8e bd
       0.110565364 -0.06050648 0.030689768 -0.06951845
000090 51 df 2a be d1 b6 10 be 92 27 27 be 55 42 ed 3c
       -0.16686751 -0.14132239 -0.16323689 0.028962294
0000a0 90 c5 e9 3d df e5 1e 3d 81 67 db 3c 11 d7 7a 3c
       0.11414635 0.03879344 0.026782753 0.015310065
0000b0 d5 1c 2c be eb f3 fc 3d 13 3b 7d bd f7 0a fb bd
       -0.16807874 0.12351211 -0.061823916 -0.12257951
0000c0 24 bf 06 3d 21 ba a8 3c fc 41 13 3e a1 59 0c 3a
       0.03289713 0.020596566 0.1438064 0.0005353932
0000d0 33 a7 a7 bd 77 03 39 3c f3 8a 25 3d 62 39 12 3e
       -0.081861876 0.01129233 0.040415715 0.14279702
0000e0 81 bb 3f bc 34 e7 66 3d 07 26 e5 3d f0 3b 0f be
       -0.011702419 0.056372836 0.11188894 -0.13987708
0000f0 b9 ea a0 bd 4b ce 27 3e b3 bb 48 bd 7b 28 19 be
       -0.0785727 0.16387288 -0.04900713 -0.14956848
000100 82 24 1b 3c 39 af 52 3b 55 e2 e7 3d 4e 18 47 bc
       0.009469153 0.0032147898 0.11322466 -0.012151791
000110 71 4f 57 bd 63 b9 c4 bd 36 38 d0 bd ee df 02 bd
       -0.052565996 -0.09605672 -0.101669714 -0.031951837
000120 75 5a 05 be 02 c8 07 3e 07 53 a7 3c e5 1a a3 bd
       -0.13022788 0.1325989 0.020425333 -0.07964114
000130 45 76 20 3e 26 d9 ab bd 31 1d 28 3d 91 b1 6c 3c
       0.15670116 -0.08391027 0.041043464 0.014446632
000140 ea d7 e2 bd 3d ef 9d 3d e7 23 4e bc 57 18 be 3d
       -0.110763386 0.07711647 -0.012581802 0.09281986
000150 5a f1 ad bd 2c a4 e8 bd d5 74 51 3c de 20 f9 3d
       -0.084933 -0.11359438 0.012784203 0.12164472
000160 51 2f 5a 3d a8 6f 1d 3e 4b fe 2b 3e 26 62 2b bd
       0.05326778 0.15374625 0.16796224 -0.04184165
000170 fa c2 10 bd 76 27 32 ba 0d 28 f6 3a a2 80 65 3d
       -0.035342194 -0.0006796041 0.0018780247 0.056030877
000180 27 25 28 3e 98 83 19 3e 5a d7 39 bc 92 9f 12 3e
       0.16420422 0.14991605 -0.011342848 0.14318684
000190 a9 8d aa bb 67 e6 11 3e b4 a6 e4 3c ab 70 08 be
       -0.0052048755 0.14248048 0.027911521 -0.1332423
0001a0 3e 6d 62 3d ec 57 d1 bd 2a 8d 2c 3e 5e 80 c6 3c
       0.055279963 -0.10221848 0.16850725 0.024231132
0001b0 cb ff 11 3e 2c d7 82 bc 41 9c c2 3d f0 be 10 be
       0.14257734 -0.015971743 0.09502459 -0.14135337
0001c0 19 90 a8 3d 22 f9 04 3e 81 e8 c4 bd ad f8 f4 bc
       0.082306094 0.12985662 -0.09614659 -0.029903734
0001d0 10 04 16 be 78 c2 2c 3d 2f 2f 00 3e 97 80 c3 3d
       -0.14649987 0.042177647 0.12517999 0.09546011
0001e0 c8 7a b6 bc cb 03 14 be b1 81 a5 3d ae 78 21 be
       -0.022275344 -0.14454572 0.08081377 -0.15768692
0001f0 2b f7 26 bd e5 60 31 3d f9 82 22 be 10 21 20 3e
       -0.04076306 0.043305296 -0.15870275 0.15637612
000200 11 b3 37 bc 5b 47 1b 3e 8d 8b bb ba a2 ab 06 3e
       -0.011212126 0.15163939 -0.0014308557 0.1315141
000210 78 db 5c bc 33 da 03 bc 11 3f 25 bd 16 00 30 3d
       -0.01348006 -0.008047628 -0.040343348 0.042968832
000220 3c 37 2e 3e 7f da 58 bd cb 42 e9 3d 2c 5d ca bd
       0.17013258 -0.05294275 0.11389693 -0.098810524
000230 41 e9 b2 bd b0 17 ea 3c de 72 2b bd 6e 3a f1 bc
       -0.08735896 0.028575748 -0.041857593 -0.029446807
000240 72 be 9c 3d 20 2e b2 bd b6 ce f0 bd 22 6a df bd
       0.07653512 -0.08700204 -0.11758177 -0.10908915
000250 1f 94 34 bc 03 50 2a be 33 0c 0c bd 61 12 67 ba
       -0.011021643 -0.16632085 -0.03419132 -0.00088146894
000260 97 6e fb bd 78 5f 8c bc bf e5 ad bd e0 73 ae bd
       -0.12276953 -0.017135367 -0.08491086 -0.08518195
000270 65 17 d4 3d c1 9a 22 3e fb b0 2d 3e 26 fb 9e 3d
       0.10356025 0.15879346 0.16962044 0.077627465
000280 f0 46 c1 bc 6e bf 8a 3d 68 22 d8 3b 72 bc 01 bd
       -0.023593396 0.067747936 0.0065958984 -0.031673856
000290 49 5d 11 3e 5a bf 29 be 62 6a 6d bb 3c 57 c8 3d
       0.14195742 -0.16576901 -0.003622674 0.09782264
0002a0 8c bc 93 3a 0f 9e 0b be 3f a4 ff bc ee e6 ca 3d
       0.0011271401 -0.13634513 -0.031206248 0.099073276
0002b0 87 2b 87 3d f3 b1 be bc 7e 63 c8 bd 25 ad 12 3d
       0.06600099 -0.023278212 -0.09784602 0.035809655
0002c0 84 bc 9d 3d ec 10 0a be 62 9e 07 be 38 61 d7 3d
       0.07701972 -0.13483018 -0.13244012 0.1051659
0002d0 44 07 19 be 2b 85 6f 3b 74 00 03 3e 21 9d 3f bd
       -0.14944178 0.003654788 0.12793142 -0.04678071
0002e0 0f 92 24 be 82 f5 28 3d cb 2c fb bd 00 09 e7 bd
       -0.16071342 0.04124976 -0.12264403 -0.112810135
0002f0 80 ce 78 3d b0 43 04 3e a3 db 00 3e 2c 11 1f 3e
       0.06074381 0.12916446 0.12583785 0.15533894
000300 3a 08 1c 3d 48 a5 07 be 4b d1 94 bc fa cd 1f 3e
       0.038093783 -0.13246644 -0.018166205 0.15605918
000310 a7 c5 23 3e ac 8c 95 bd 1a 67 13 3e 41 bd 29 be
       0.15993367 -0.07302222 0.14394799 -0.16576101
000320 85 68 4e 3c b1 53 2d be ec 1e 04 bd 6b d7 28 be
       0.012598162 -0.16926457 -0.032256052 -0.16488425
000330 47 8a be 3d d1 ab 23 be a4 10 24 be c4 71 17 3e
       0.09303718 -0.15983512 -0.16021973 0.14789492
000340 46 34 43 3d 97 ba cc bd 35 d1 ee 3b 61 57 2f 3c
       0.047657274 -0.09996527 0.007288123 0.010701985
000350 2c 7c 48 3d 7c c0 a3 3c b1 ad 98 3c d4 c0 c8 3d
       0.048946545 0.019989245 0.01863751 0.09802404
000360 59 41 b8 bc c2 dc 57 3d 25 3e b3 bd fe a9 88 3d
       -0.022492098 0.052700765 -0.087520875 0.066730484
000370 0f 9c 8a 3b 63 98 03 3e 10 b9 31 3d 07 dd 34 bd
       0.0042300294 0.128511 0.04338938 -0.0441561
000380 9a 31 10 bd f4 a7 d9 3c 30 93 88 3c 77 93 b3 bd
       -0.035203554 0.026569344 0.016671747 -0.08768361
000390 a2 0a 0f be 12 b3 f5 bb 2c 67 af bc cf fc 87 3d
       -0.139689 -0.0074981535 -0.0214115 0.06640016
0003a0 80 8e c7 bd ef 7c 20 be ee 28 a7 3d 52 49 1d 3e
       -0.097439766 -0.15672658 0.081621036 0.1536
0003b0 a8 dc dd 3d dd d7 6e 3d 40 b2 e5 bd 7f de 06 3d
       0.108331025 0.058311332 -0.11215639 0.032927033
0003c0 01 74 08 3e eb 05 ee 3d 73 47 25 3d f1 84 bb bc
       0.13325502 0.116222225 0.040351342 -0.02289054
0003d0 cd bb b3 3d 87 85 85 3d 70 6e e3 bd f2 d4 1a be
       0.087760545 0.06519609 -0.11105049 -0.15120295
0003e0 c5 62 10 3e c5 91 e4 bd 2f 77 00 3e 05 05 d0 3d
       0.14100178 -0.11160616 0.12545465 0.101572074
0003f0 3e 97 f6 3d 73 b7 13 3e 45 68 21 3e df e5 fa bd
       0.12040566 0.14425449 0.15762432 -0.12250876

rnn.bias_ih_l0_reverse f4 [136]
000000 50 d5 f2 bd c3 c6 01 be f4 1c 91 3b 26 a0 e3 3d
       -0.118570924 -0.12673478 0.0044285003 0.1111453
000010 29 ca 11 3e f5 26 1d be 0f aa 1f be c7 59 8f 3d
       0.14237274 -0.15346892 -0.15592216 0.069995455
000020 05 22 f4 3d 63 f3 dc bd d4 50 ae bd 4d 8b aa 3d
       0.11920551 -0.1078861 -0.085115105 0.08327351
000030 e3 22 88 3c 36 c1 9b 3d 55 ed c3 bd ae 9a fe bd
       0.016618198 0.076052114 -0.09566752 -0.124318466
000040 14 57 74 3d 8f 6b e4 bd e9 f9 73 bd 28 e6 81 3d
       0.059653357 -0.11153328 -0.059564505 0.06342727
000050 1c a1 8f bd 94 3b da bd df 58 bd bd 97 84 bf 3d
       -0.07013151 -0.10655895 -0.092454664 0.093514614
000060 d4 67 22 bd a6 66 0e 3d a0 b0 a8 bd e6 4e e4 bd
       -0.0396498 0.034765862 -0.082368135 -0.11147861
000070 49 73 8d bd b9 f8 04 bb b8 7e a8 bd 3b 92 10 be
       -0.069067545 -0.0020289852 -0.08227295 -0.14118282
000080 48 48 92 bd eb 3a af 3d 68 73 b5 bc ba 2c e1 3c
       -0.07142693 0.085561596 -0.022149757 0.027487148
000090 65 22 d6 bd e0 28 2f be c3 0d 03 3e 87 de e0 bd
       -0.10455779 -0.17105436 0.12798218 -0.10979944
0000a0 98 26 86 3d 6a 37 fd bc 35 18 d6 3c b6 93 1a 3e
       0.0655033 -0.030910213 0.02613459 0.1509541
0000b0 56 6c 23 3e 04 4c 08 be e1 c9 3e bd 8b b9 fc bd
       0.15959296 -0.13310248 -0.046579245 -0.12340077
0000c0 17 ae cb bd eb a8 dc bd ce 61 ae 3c 41 ee e5 bd
       -0.099453144 -0.10774406 0.021286871 -0.11227084
0000d0 5e 98 0a be 00 da 83 3d f5 ef 0e bd d9 80 09 be
       -0.13534686 0.064380646 -0.03489681 -0.13428058
0000e0 f4 50 b8 bd 7e 86 00 bd f5 51 99 3d 07 ab 0e be
       -0.089998156 -0.03137826 0.07486335 -0.13932429
0000f0 be 49 27 3e 50 5c b6 3d 94 2c 59 bc bb 23 12 be
       0.16336724 0.08904326 -0.013255257 -0.14271443
000100 c6 8b ab bd a3 8e 5d bd d5 9c 23 3e 45 1a 12 be
       -0.08376269 -0.054091107 0.15977795 -0.14267834
000110 f5 43 89 bc 52 e2 fb bc b5 53 3e bc 03 37 ac 3d
       -0.016756037 -0.030747566 -0.011616637 0.0840893
000120 17 0b 35 bd 83 4f 19 3c 1d c4 5d 3c 1a ed 21 3d
       -0.04420003 0.009357336 0.013535527 0.03953276
000130 06 dc 3c 3d e8 fd bf 3d c1 af d6 bd b8 f4 7a bd
       0.04610827 0.09374601 -0.10482741 -0.06126854
000140 5b 0a ff 3d 16 d6 d6 bd 67 14 05 be 27 3c db bd
       0.12453147 -0.104900524 -0.12996064 -0.107048325
000150 1f 5c d0 bd d5 29 72 3d 10 b8 5b 3d 99 01 8a bd
       -0.10173821 0.059121925 0.053642333 -0.06738586
000160 f8 60 be 3d 8e e2 0a 3e 69 13 29 3e 98 01 23 be
       0.09295839 0.13562986 0.1651131 -0.15918577
000170 2a fa a8 bd 13 f8 ba 3d 9e 3b 32 3c dc db fa 3d
       -0.0825084 0.09129348 0.010878472 0.12248966
000180 4b 66 2f bd 70 91 90 bd 70 80 df 3c 6c 88 78 3c
       -0.042822164 -0.0705899 0.027282923 0.015169244
000190 d2 ad a6 bd 68 a0 7c bd 03 45 be 3b 7e 55 85 3d
       -0.08138622 -0.061676413 0.0058065667 0.06510447
0001a0 88 9a 2a 3e c3 55 de bd da 71 17 3e b3 dd dc bd
       0.16660511 -0.108562015 0.14789525 -0.10784473
0001b0 3a 78 21 3e 9b 41 bf bd 59 20 75 bd 0b 78 ff 3c
       0.15768519 -0.09338685 -0.059845302 0.03118517
0001c0 00 fa 55 bc 47 c6 cc 3d 54 6c 88 3d 45 30 89 bb
       -0.013060093 0.09998756 0.06661287 -0.0041866624
0001d0 b9 51 c1 3d 1e cd 97 3d e4 55 40 3d ed 1d 3b 3c
       0.094394155 0.0741217 0.04695691 0.011420709
0001e0 80 c0 7e 3d d4 f9 1b 3e 06 7b b4 bd 38 44 1a be
       0.0621953 0.1523202 -0.08812527 -0.15065086
0001f0 0b 1a bc 3c bc ec a0 3d 21 da a4 3d 99 38 7d 3b
       0.022961637 0.078576535 0.08049417 0.003863847
000200 30 41 d3 3d ea 66 ce 3d a7 76 28 3e d0 64 8d 3d
       0.10315168 0.10078223 0.16451512 0.06903994
000210 74 26 0f be 6a 35 cd 3b ac e7 2b 3e f1 36 1c be
       -0.13979512 0.006262471 0.16787595 -0.15255333

rnn.bias_hh_l0_reverse f4 [136]
000000 eb e5 1c 3d 4f d9 88 3d 10 27 d1 3d bc ec a6 3d
       0.038305204 0.06682073 0.10212529 0.08150622
000010 12 dc b6 bd 2b b3 82 bd 2f 35 a3 bd cb f8 89 3d
       -0.08928694 -0.0638183 -0.07969128 0.067369066
000020 89 38 d0 3d 03 55 ee bd e9 57 26 bc bb 5e da 3d
       0.10167033 -0.116373084 -0.010152795 0.106626
000030 17 2b 0a 3e c7 b5 13 bd c8 1f 06 be de 45 96 3d
       0.13493 -0.03606203 -0.13098061 0.07337545
000040 d3 fe e0 bd af 9e 21 be e7 23 2a be 9a 2c df 3d
       -0.10986104 -0.15783189 -0.16615258 0.10897179
000050 1e 1d 6b bb ed 01 9d 3d 03 6d 2d bd 0f 32 10 3e
       -0.003587551 0.07666383 -0.04234029 0.14081596
000060 ea e0 78 bd 31 b3 21 be c8 d5 c8 3c 00 de 30 3d
       -0.06076137 -0.15791012 0.024516001 0.043180466
000070 5b b1 9b bd b9 8b dc bd f8 57 05 be 07 5a b7 3d
       -0.07602187 -0.107688375 -0.13021839 0.08952718
000080 e4 b2 33 3d 1e 88 d0 bd 75 69 23 be 83 7e 1a 3e
       0.043871775 -0.10182212 -0.15958197 0.15087323
000090 56 05 25 3e 5b 23 8e bb 70 a5 2c be 58 7b 07 be
       0.16115317 -0.004337711 -0.16859984 -0.13230646
0000a0 af 06 91 bd ed 71 19 3e 39 44 b3 bc ba d6 3d bb
       -0.07081353 0.14984865 -0.021883117 -0.0028967098
0000b0 0b da 45 bc 58 99 1d be 4c a0 12 be f5 e1 0a be
       -0.012075911 -0.15390527 -0.14318961 -0.13562758
0000c0 df a9 f7 bd 75 8c 03 be 28 89 c7 bc ee 49 a1 3d
       -0.12092947 -0.12846549 -0.024357393 0.07875429
0000d0 92 70 27 3e 53 f4 19 3d d3 af ca 3d 54 67 11 3e
       0.16351536 0.03758652 0.09896817 0.14199573
0000e0 08 28 b4 bd ae e2 08 be 5d 72 9f 3d 8a f7 86 bd
       -0.08796698 -0.13367721 0.07785485 -0.06590183
0000f0 f2 bf 16 3d 36 0b 89 3d 4c 32 79 bd 4b e7 01 bd
       0.036804147 0.066915914 -0.060838982 -0.03171472
000100 c1 78 d1 3d 05 ea 17 be c4 0c 0a be 0f a5 99 bd
       0.1022811 -0.14835365 -0.13481432 -0.075021856
000110 7d 01 0d 3d 80 85 3f 3d ce 45 6e bd c7 67 d4 bd
       0.034425247 0.046758175 -0.05817204 -0.103713565
000120 95 6b 0a 3e 22 1c 29 be 73 66 01 be c6 e7 67 bd
       0.13517602 -0.16514638 -0.12636738 -0.05661752
000130 92 d8 bc bc f0 50 6a bc 83 9e c3 3d 1a bc 53 bd
       -0.023052488 -0.014301524 0.09551718 -0.05169306
000140 50 05 b2 bd 6a 28 ff bd 5e b2 44 bd d8 ed 88 3d
       -0.086924195 -0.1245888 -0.048021667 0.0668599
000150 c6 c0 65 bd 15 b5 f8 bd 94 d0 27 3e 6a f7 b3 3d
       -0.056092046 -0.12143914 0.1638816 0.08787425
000160 84 ac 95 bc 32 3a a8 3d db 91 52 3d 17 28 23 be
       -0.018270738 0.08214225 0.05140863 -0.15933262
000170 bd 15 ef 3d a9 da ee 3c 90 0f ec 3d f4 d3 85 3d
       0.11674068 0.029157 0.11526406 0.065345675
000180 bb 0b 76 bd 8c 1c 96 bd be 85 be bd b6 dd 1a be
       -0.06006978 -0.07329664 -0.09302853 -0.15123639
000190 85 81 7f bd fa 0f c8 bc a0 4d da 3d 6a 6b 4e 3d
       -0.06237938 -0.02442168 0.10659337 0.050395407
0001a0 63 3f 75 3c 6e f4 de bd 99 52 4d bd c1 a6 ec 3d
       0.014968726 -0.10886465 -0.0501276 0.11555243
0001b0 bc 7e f1 bd 93 7e b4 3d 5c 15 29 be ef 80 67 3c
       -0.11791751 0.088132046 -0.16512054 0.014129861
0001c0 80 e1 d3 bc 85 16 c2 3c cf a2 fe bd 5a 15 07 be
       -0.025864363 0.023692379 -0.12433397 -0.13191739
0001d0 ff 76 93 bb 82 f9 db bd 4d 3d 9c bd ba af 44 3c
       -0.0045002694 -0.10740949 -0.0762888 0.012004787
0001e0 f3 eb 29 3d a2 4c 24 3d 3b c1 33 3c 62 97 a9 bd
       0.041484784 0.040112145 0.010971363 -0.08280827
0001f0 45 d7 f7 3c 16 19 7b bd 0a 11 10 3e 21 1f a2 bd
       0.030254016 -0.06130322 0.14069 -0.079160936
000200 a2 40 a2 3c 95 47 e1 bd c4 8f ee bd cb 04 1d be
       0.01980621 -0.10999981 -0.11648515 -0.1533386
000210 01 0d 86 bd 76 7b 10 bd 19 de c9 3d e1 04 64 bd
       -0.06545449 -0.03527399 0.09856815 -0.055668715

fnn2.0.weight f4 [90, 1496]
000000 76 0a d4 bb 30 5b 90 bc f1 50 81 3c c9 21 26 bc
       -0.0064709736 -0.017621607 0.015785666 -0.010139891
000010 4a 8c 66 bc 96 3c ae bc 19 87 b7 bc 77 04 e1 3c
       -0.014071533 -0.021269124 -0.022403287 0.02746795
000020 9b e7 c0 bc b7 31 a2 bc e6 f0 89 bc a3 f3 94 3c
       -0.023547938 -0.019799097 -0.016838502 0.018182581
000030 b3 94 bf 39 71 4f ab bb 98 04 f8 b9 98 09 cb 3c
       0.00036541148 -0.005227976 -0.0004730567 0.024784848
000040 2e 55 43 bc b8 9b b8 bb 2b b6 34 bc 12 68 cf 3c
       -0.011922164 -0.0056337975 -0.01102976 0.02531818
000050 bb f6 2e 3c 74 5c 7d bc 62 f6 83 3c 12 8f 69 bc
       0.010678942 -0.015463937 0.016108695 -0.014255302
000060 33 08 85 bc d7 90 01 bc 24 43 3b 3b 2a 36 c9 b9
       -0.016239261 -0.007908068 0.0028573954 -0.00038378063
000070 a5 13 47 3b 95 32 70 3b 2c 9b bb bb fb 74 50 3b
       0.00303767 0.0036651243 -0.005725285 0.0031808007
000080 f1 cc 6f bc 83 35 b1 3c b9 2b 88 3c e9 3e 8d 3c
       -0.014636264 0.021631962 0.016622411 0.017241912
000090 af c3 8a bb 5b ed 90 3c 05 ad 56 3c a2 49 d0 bc
       -0.004234753 0.017691305 0.0131027745 -0.025425736
0000a0 8a b7 56 3c 07 2f 15 3c 64 52 d3 bb 2d 5a 33 bc
       0.013105283 0.0091054505 -0.0064490307 -0.010946793
0000b0 3b 28 ba bc 28 e0 a9 3b ae 43 2d 3c b0 4a 08 bc
       -0.022724262 0.005184192 0.010575218 -0.008318588
0000c0 08 18 3b bb a3 fa 8a bb 8c f7 bb 3c 55 7f 48 bc
       -0.002854826 -0.004241304 0.022945188 -0.01223739
0000d0 d9 9b 79 3c 38 80 b1 bc e2 2a a5 bc 71 60 fe 3a
       0.015234911 -0.021667585 -0.02016205 0.0019407404
0000e0 36 0a 66 3c 75 f7 58 3c 88 91 8c bc 66 ed 99 3c
       0.01404052 0.013242592 -0.017159238 0.018789958
0000f0 df 6a 8a bb 1e 89 a6 3c 38 69 9d bc 34 70 9f 39
       -0.004224166 0.020329054 -0.019215211 0.0003041044
000100 2b 46 85 bc a6 21 71 3c aa b0 17 3c 1c 97 e6 3c
       -0.01626881 0.014717495 0.009258429 0.028148226
000110 46 49 1b bc 53 7c b7 3c 04 5d 66 3c 35 2e b3 bc
       -0.009477919 0.02239815 0.014060263 -0.02187262
000120 66 82 33 bc b7 b1 2d 3b cd e9 e1 3b 0b 52 d7 38
       -0.010956382 0.0026503631 0.0068943263 0.000102672806
000130 4a 99 ff ba d5 7f 19 bc 0d 53 3c 3c 65 13 dd bc
       -0.001950064 -0.009368856 0.01149441 -0.026986787
000140 00 e1 a8 3c 33 ec a9 3c 16 e4 64 bc e2 23 4d 3c
       0.0206151 0.020742511 -0.013970396 0.012520762
000150 b7 05 81 ba b9 dd 2b 3c 57 74 a8 bc 03 6c 85 3c
       -0.0009843622 0.0104898745 -0.020563288 0.016286856
000160 e0 1e 88 bc 39 55 3c bc 47 81 a3 3b 8e 60 e2 bb
       -0.016616285 -0.011494928 0.0049897763 -0.006908483
000170 61 d5 3e bc 46 69 77 3c 80 2a 19 3c 5f 99 a8 bc
       -0.011647553 0.015100783 0.009348512 -0.020580946
000180 c6 57 f1 3a 7e 2a 53 bc 86 2a a2 bc 30 6f c0 3c
       0.0018412999 -0.012888549 -0.019795667 0.023490518
000190 c1 92 aa 3c b0 1a 57 bb f3 15 65 bc ab c1 d2 3b
       0.02082193 -0.0032822303 -0.013982284 0.0064317784
0001a0 06 cb 6d 3c c1 c7 77 bc 74 ff dd 3b ae 00 78 3c
       0.014513737 -0.015123309 0.006774837 0.015136881
0001b0 fd 65 b7 3c b4 51 85 bc 9c 61 23 bc 02 99 0e 3c
       0.022387499 -0.01627431 -0.009972002 0.008703472
0001c0 cf 63 54 bc 0a d6 1c 3c e6 c4 fa bb fe 6b 72 3c
       -0.012963249 0.009572515 -0.0076528667 0.014796255
0001d0 c3 e4 44 bc cd e1 af 3b 2b d7 d3 3c d3 73 e0 3a
       -0.012017432 0.0053674937 0.025859436 0.0017124362
0001e0 d0 01 ca bb f3 cc 92 3c 8c 01 09 bc 8a c9 bb 3c
       -0.006164767 0.017919993 -0.008362185 0.02292325
0001f0 7f 0c d8 3a f7 03 ae bc f4 cd 2b ba 34 90 82 3b
       0.0016483216 -0.021242125 -0.0006553822 0.0039844755
000200 1f 0a 72 3c 3c e6 bc bc 94 a0 5d b9 cb c8 b1 3b
       0.014772921 -0.023059003 -0.00021136022 0.0054255477
000210 8e 10 9b bc 8c ca 9c 3b 78 cf 10 3c 3a 45 3a bc
       -0.018928792 0.0047848877 0.008838527 -0.011369044
000220 e5 f3 89 3c 3e 57 8d bc 60 b9 cb 39 ff 18 15 bc
       0.01683993 -0.017253514 0.00038857292 -0.009100198
000230 18 2e 4c 3c 70 2b 93 bc 2b 4a b1 3c f7 d7 9c bc
       0.0124621615 -0.017965049 0.021641811 -0.019145949
000240 5f 8b 3d 3b 02 62 f1 3b 61 9b b5 bc 29 d7 c5 bc
       0.0028922183 0.00736642 -0.022168817 -0.024150448
000250 70 69 8f 3c 86 bb 3f 39 9b ad 63 bc 16 51 7e bc
       0.017506331 0.00018285037 -0.013896371 -0.015522262
000260 d5 90 20 bc d6 e1 f8 3b ef 86 a3 bc 3a cf 21 3c
       -0.009800156 0.007595281 -0.019961802 0.009876067
000270 78 a5 04 bb 9e 84 ac 3c e9 73 f7 bb 13 f0 ae 3c
       -0.0020240229 0.02105933 -0.0075516594 0.02135471
000280 ad 57 7f 3c 8a 28 12 3c 1a e0 b2 3c 81 b6 8e bc
       0.015584868 0.008920798 0.021835376 -0.017421009
000290 2c 9a 1b 3c e4 48 69 3c 37 0e 84 3b a4 d2 ba 3c
       0.009497207 0.01423857 0.004030015 0.02280552
0002a0 ab 91 97 bc 92 97 f9 ba 11 2d bb 3c b0 02 13 3c
       -0.018502077 -0.0019042364 0.022848638 0.008972809
0002b0 a3 7c 8b bb db 9e 2b 3c 82 05 ac 39 1f 31 24 3c
       -0.004256801 0.010474886 0.000328105 0.010021477
0002c0 ef e1 83 bc 53 cc 72 bc 65 cb 04 bc c5 a3 4c bb
       -0.016098944 -0.0148192225 -0.008105134 -0.0031225544
0002d0 32 8b 66 3b cd 48 5e bc 8b ba 63 3b 07 bc a0 bc
       0.0035178182 -0.013567162 0.003474864 -0.019620908
0002e0 02 23 06 bc 4e 1f 9a bb 12 73 b5 bb 62 db cb 3b
       -0.008187057 -0.004703439 -0.005537399 0.006221221
0002f0 0a e7 0c 3c 83 2e 25 3c e1 3c 01 bc 42 1d 9f bc
       0.008600006 0.01008189 -0.00788805 -0.01942313
000300 8d 12 b7 bc b2 e3 97 bb a6 d3 ca 3b bf dc ed bc
       -0.022347713 -0.0046352977 0.0061897812 -0.029035924
000310 67 7b 88 38 63 fb 9a bc ef 78 b1 3b 0d 92 c9 bc
       6.507971e-05 -0.018918699 0.0054160277 -0.024605775
000320 17 f8 94 bc 4e f5 85 3b 2e a9 e2 3b 18 99 0b bb
       -0.018184705 0.0040880805 0.0069171404 -0.0021300968
000330 70 10 99 bc c2 39 b8 3a b4 77 08 bb b5 05 38 ba
       -0.018684596 0.0014055299 -0.0020823302 -0.00070198934
000340 1c 1d 31 bc 77 6c bc 3c 0c 53 bd 3b 5f 23 85 ba
       -0.010810163 0.023000939 0.005777722 -0.0010157636
000350 e3 dc 97 3c df b5 1e bc 49 9c e2 bb 90 9f 2c bc
       0.018537944 -0.009686916 -0.0069156033 -0.01053609
000360 d3 a6 6b bc 52 ce c0 3c b4 8b a2 bc fe c8 7f bc
       -0.014383036 0.023535881 -0.019842006 -0.015611885
000370 40 e8 17 bc 10 3a 79 bc 3e 5d 2e 39 ad b9 cc bc
       -0.009271681 -0.015211597 0.00016628669 -0.02499088
000380 62 13 ac bb ec 68 6e 3b 96 87 89 3b b2 55 c7 bc
       -0.005251334 0.0036378456 0.0041970713 -0.024332855
000390 0e 70 8a 3b 86 03 a5 3b 23 38 ad 3c f4 83 79 3b
       0.0042247837 0.0050358204 0.021144932 0.0038073035
0003a0 0c bb e4 3b 4f 25 8f bc 4b 2f 53 3c e5 56 1b 3c
       0.0069803055 -0.017473845 0.0128896935 0.0094811665
0003b0 4f 54 ee bb c1 53 81 bc 79 de 6a bc 7c 30 32 3c
       -0.007273234 -0.015787007 -0.014335268 0.010875817
0003c0 6f 2c 68 3c 25 5c fa bb 60 ce 7b 3c b3 b2 42 3c
       0.01417075 -0.007640379 0.015369028 0.0118834255
0003d0 9a 3d 51 3c cc 39 aa bc e3 d4 c3 3c d4 9a b3 bc
       0.012771035 -0.020779513 0.023905223 -0.021924414
0003e0 b0 b4 a1 3c 42 5f 28 3c 65 4e a8 3b 44 67 56 ba
       0.019739479 0.0102766175 0.0051362985 -0.000817884
0003f0 bd 1c 5c bc fe 4b 6e 3c 43 83 97 3b 11 94 95 3a
       -0.013434586 0.014544485 0.004623802 0.0011411925

fnn2.0.bias f4 [90]
000000 7a 99 2e bc 6f a2 a3 3a 0f bc 85 bc dd 1f ee bb
       -0.010656709 0.0012484322 -0.016325025 -0.007266982
000010 51 6c a2 3c e0 7f 5c 3c a6 ae a9 b9 40 bf 3a 3c
       0.01982704 0.013458222 -0.00032364315 0.011398137
000020 73 77 8e bc b8 fe 93 3c b7 b2 9a bc 54 69 91 3c
       -0.017390942 0.018065795 -0.018884046 0.01775042
000030 b6 b2 7c 3c b2 ca a2 bc 54 d5 c6 bb 18 6c 1e 3b
       0.015423467 -0.019872043 -0.006067911 0.0024173316
000040 32 2a cf bc 07 d8 8a ba 8a 96 9a 3b 7f 5f 12 3c
       -0.025288675 -0.0010592946 0.0047176527 0.008933901
000050 7d 09 6b 3c da 5c a1 bc c1 a1 16 bc 97 db a0 3c
       0.014345524 -0.019697595 -0.009193839 0.019635959
000060 48 1f 59 bb a9 f9 c2 bc 8f 12 32 bc e6 8a ae 3c
       -0.0033130217 -0.023800688 -0.0108686825 0.021306466
000070 f6 19 67 3c e5 c9 f4 3b 07 ba 96 bc 51 4b 2c bb
       0.014105311 0.0074703568 -0.018399252 -0.002629001
000080 59 2e 80 3c 5a 34 c8 bc e6 d5 61 3c bd b7 56 bc
       0.0156471 -0.024439026 0.0137839075 -0.01310533
000090 af 50 97 3c 96 9a eb 39 59 6c 0b 3c aa 0e ab 3c
       0.01847109 0.00044937868 0.008509719 0.020881016
0000a0 e2 9c 4b bc b8 57 a7 3c 02 be 61 3c cb 0e 43 3b
       -0.0124275405 0.02042757 0.013778212 0.0029763456
0000b0 ac 71 96 bc bb e7 79 bc ee f9 4d 3b 69 83 69 3c
       -0.01836475 -0.015253003 0.0031429487 0.014252522
0000c0 47 93 af bc 12 81 5d bc fa 23 1c bc e6 63 b7 bc
       -0.021432532 -0.013519542 -0.009530062 -0.022386502
0000d0 09 78 a7 bc 1b c3 3f 3c 5f dd ee 3b 36 39 83 3c
       -0.02044298 0.011704232 0.007289573 0.016018491
0000e0 39 11 a0 3c f7 c0 bf bc 67 b3 7c 3c ef 96 86 3c
       0.019539462 -0.023407442 0.015423632 0.016429393
0000f0 bd b0 9c 3c 5a 36 c1 bc f9 05 bf 3c 54 c9 90 bb
       0.019127244 -0.023585487 0.023318278 -0.0044185314
000100 c6 65 ee 3b 4d 8b 93 3c 47 44 ea 3b b7 40 8b 3c
       0.007275316 0.01801076 0.0071492526 0.016998632
000110 87 81 37 bc 76 c7 48 bc f7 ef 9d 3c 2b ca 4d 3c
       -0.011200315 -0.012254586 0.019279463 0.012560408
000120 f3 82 67 bc 0e 99 76 bc 92 07 8e 3b f3 44 b1 3c
       -0.014130342 -0.0150511395 0.0043343985 0.021639323
000130 24 89 97 3c d2 b1 3a 3b 64 b3 bb bc bd 3a a9 bc
       0.018498011 0.0028487337 -0.022912689 -0.020657891
000140 30 16 cf bc 4e 4c 9b bb df 7d b6 3c dc e2 18 bc
       -0.025279135 -0.004739321 0.022276817 -0.009331431
000150 ae 97 d8 3b c2 80 00 3c e0 7d 92 bc 72 c4 a9 bb
       0.0066098785 0.007843198 -0.017882288 -0.005180889
000160 ec b2 46 3c 72 0d 9f 39
       0.012127619 0.0003033686

fnn2.1.weight f4 [90]
000000 a0 84 80 3f ef 2a 80 3f f4 49 80 3f 01 cf 7f 3f
       1.0040474 1.0013102 1.0022569 0.9992524
000010 7d c2 7f 3f 96 2b 80 3f e1 a4 7f 3f 2a 28 80 3f
       0.9990614 1.0013301 0.9986096 1.0012257
000020 44 cc 7f 3f b3 cd 7f 3f 59 aa 7f 3f cd 21 80 3f
       0.9992106 0.9992325 0.99869305 1.0010315
000030 4a 88 7f 3f 1b a1 7f 3f 0c f0 80 3f 9f a6 7f 3f
       0.99817336 0.998552 1.0073256 0.9986362
000040 b3 83 7f 3f ab 91 7f 3f 99 45 80 3f b7 b6 7f 3f
       0.9981033 0.99831647 1.002124 0.99888176
000050 12 fd 7f 3f 0f a5 7f 3f c0 ed 7f 3f 4d c7 7f 3f
       0.9999553 0.99861234 0.9997215 0.99913484
000060 af 93 7f 3f 30 b7 7f 3f 52 28 80 3f 80 da 7f 3f
       0.9983472 0.99888897 1.0012305 0.9994278
000070 18 9b 7f 3f a2 9d 7f 3f ba a3 7f 3f 0f 51 80 3f
       0.9984603 0.99849904 0.998592 1.0024737
000080 20 b8 7f 3f 54 41 80 3f 67 d8 7f 3f 28 9f 7f 3f
       0.9989033 1.0019937 0.9993958 0.9985223
000090 0e c7 7f 3f c4 a4 7f 3f 8a af 80 3f bc 41 80 3f
       0.9991311 0.9986079 1.005357 1.002006
0000a0 5c 99 80 3f 85 d1 7f 3f 02 14 80 3f ef ae 80 3f
       1.0046802 0.99929076 1.0006106 1.0053385
0000b0 8e 53 80 3f 7a c0 7f 3f e0 63 80 3f 4a d2 7f 3f
       1.0025499 0.9990307 1.003048 0.9993025
0000c0 1c 0e 80 3f cb c6 80 3f 56 98 7f 3f ff a1 7f 3f
       1.0004306 1.0060667 0.9984182 0.9985656
0000d0 bc 0b 80 3f c2 4d 80 3f 17 d0 7f 3f 49 01 80 3f
       1.0003581 1.002373 0.99926895 1.0000392
0000e0 a9 1d 80 3f 2f 00 80 3f a5 d0 7f 3f 5d b5 7f 3f
       1.0009052 1.0000056 0.9992774 0.99886113
0000f0 e2 23 80 3f 28 2a 80 3f 88 13 80 3f 55 d4 7f 3f
       1.001095 1.0012865 1.000596 0.9993337
000100 fe c0 7f 3f 88 98 7f 3f 75 9c 7f 3f 8e 0d 80 3f
       0.9990386 0.9984212 0.9984811 1.0004137
000110 74 91 7f 3f 93 c8 7f 3f b9 55 7f 3f b2 7f 80 3f
       0.9983132 0.99915427 0.9974018 1.003897
000120 8e 19 80 3f d7 2f 80 3f 9b 8f 7f 3f ec 0d 80 3f
       1.0007799 1.00146 0.998285 1.0004249
000130 f0 e6 7f 3f 89 95 7f 3f ee 51 80 3f ad a6 7f 3f
       0.9996176 0.9983755 1.0025003 0.998637
000140 1c 9a 7f 3f d2 1d 80 3f e5 8f 7f 3f d9 f2 7f 3f
       0.9984453 1.00091 0.9982894 0.9997993
000150 e7 c1 7f 3f 18 d3 7f 3f 34 1e 80 3f 43 b8 7f 3f
       0.99905246 0.9993148 1.0009217 0.99890536
000160 31 b6 7f 3f 67 20 81 3f
       0.9988738 1.0088013
