data/models/embeddings.pt (torch_old, 54320 bytes, 5 tensors)

embeddings.weight f4 [65, 25]
00000000: b3d8 e8bd 0f83 cc3d d6f6 b1be ce0e 903e
00000010: 5a41 83be f996 e23f 07e5 23bf 70ad 293e
00000020: b64b 4b3f beed 33c0 3417 3dbf 1594 c93e
00000030: 8b3c 92bf f43a 6d3f a55a 853f 3fb6 9e3f
00000040: 88d4 c8bf 566d 673f ffa7 933e 4e17 16c0
00000050: 9a48 b8bf fab8 323f e120 a83d 9a8a 5abf
00000060: e764 a4bd f336 54bf 853b 043f 5431 42be
00000070: c007 4140 ec1b fa3e 19ae b0bf 7bf2 c6be
00000080: d725 d8be 376b c03e e6b2 353f 4a67 a0be
00000090: 3a4e f33e d769 083f 19ad 0f3f bd66 b1bf
000000a0: 8e48 563f 8a63 d63e 45ba d4be ef54 7e3f
000000b0: f46e 113f 4711 05bf 2fff d03f 19ef d93f
000000c0: e5c1 0c40 8b44 293e d4ce 3b3e 9e36 633f
000000d0: e44b cabe 5082 bc3e c231 33be 429b 44bf
000000e0: 34fe 843e 39cc ffbf 958f 24bf 1e7a 7bbe
000000f0: 8ec5 8dbf c1a5 38bc 0181 25c0 a40e c1bf
00000100: 0ac6 46bf 7d0f b5bf 6018 d43e b797 d7be
00000110: 5837 1c3f 431c a33f d2f6 8a3e 0451 babe
00000120: a44d eb3f a269 8fbf 67cd 3dbf 200d 1e3f
00000130: 8415 13bf b5be ae3d fc05 f0be 4489 2a3e
00000140: 3996 a1bf e141 9fbf 7605 fa3f 2cf1 a8be
00000150: 1104 11c0 3e49 fcbf 8562 693e 26b4 be3f
00000160: 66aa 563f 930b 913f 2924 34c0 9e2b dcbe
00000170: 8974 c33e c984 013f a5f3 dabe 2246 cbbc
00000180: 72ab 9f3f 90f5 4e3f f589 0c3f c4ce 03bf
00000190: ba84 2cc0 e34a 883f 22e4 fcbf b1e9 02c0
000001a0: fba7 e53e 1d41 c9be 6180 4ebe 2f06 dc3e
000001b0: 37e5 69bf 5f5d a43f 809e 8e3e 12a3 95bf
000001c0: 35ca 38c0 a618 56be 160e 16be 6a8b 06c0
000001d0: 1b2e 09c0 3cfe 00c0 7452 83be ee39 833d
000001e0: 9492 afbf 5824 0fbf 7e17 8ebf 2e29 babf
000001f0: 921b 4c3f ff01 b53f 5bb0 55bf 3cd3 263f
00000200: e89b d9bf ab4d dc3e bef9 e4bf 1ee1 b4be
00000210: 5b8c 85bf 1acb 533e 71b8 943d c59e 1f40
00000220: 3213 b1bf a80c 3c3f 7aec c83e 9e99 d2bf
00000230: 8b7f 983f 498f 6ebf ba2d c43e da31 cf3e
00000240: 715f d7be 70d5 f1bf 6de5 04bf 0f2e 30bd
00000250: 3fa8 b8bf 6267 143f e0b1 4abf 4f42 903f
00000260: 1c52 053f 5174 553e a941 333f 72ff 0e3f
00000270: 8f46 c73f c338 943d 6cc4 ee3e d95b a4be
00000280: dcb8 f03f 971c 4e3f 44d3 9e3f 899b c1be
00000290: ab9a ccbf 15eb 643f b7f7 173f 5d2c fdbf
000002a0: 3333 a1be 1ba2 a6bf d093 853f 27f4 fdbf
000002b0: 4f43 f43c baaf 20bf 5e92 a03e a506 ae3f
000002c0: 51ac de3e fb08 1940 968f c2be e2fd 3c3e
000002d0: 57e4 123e a14f 1d3f f7f0 fb3f 0f82 02c0
000002e0: a351 c6be 00fa 6abe f662 c63f f1f1 d43e
000002f0: 946a 9d3f 430a 97bf 894c e93f 5924 cb3f
00000300: da7d ab3f 4a05 79bf 367e b5bd 8b1d ec3e
00000310: 25e3 903e b3db 293f 4520 9bbe 2c4b 313f
00000320: 7230 8cbf cbfb 8a3f a825 89be 43af 1a3f
00000330: 1ea2 a23b 4391 0c40 dd34 0bc0 6900 133f
00000340: 7eca 37bf 9599 a73e 67cc aabf 2f4d 0cbf
00000350: 22cf 033d 819d e93e 28ec 933d 2a66 dcbd
00000360: 854e ce3f 0275 d5bf 305f 3dbf ce83 92be
00000370: 2c14 cf3f bc70 6abc 999d be3d 79f2 0bbd
00000380: dd50 5fc0 020b 083f 8280 78bf 5401 393f
00000390: 634c 263d 1791 89be 3db0 913f 6d8b 023f
000003a0: a863 0b3f 4dc1 b5be c2c4 5c3e c1c4 203f
000003b0: a356 17be 6fdf 6dbe 7302 0e40 74b0 74bd
000003c0: 81d3 31c0 3099 e1bf ebc4 ff3e ac72 dcbf
000003d0: 5fb7 f0be df5f 293f 7fe1 ba3f 7629 4dbf
000003e0: 8146 493d 2f65 a53f 4ea9 893f 908c 0fbf
000003f0: a840 1dbf ae36 3f3f b8da 953e a664 893f
-0.11369457 0.09985935 -0.34758633 0.28136295 -0.25635797 1.7702323 -0.64021343 0.16570067
0.794124 -2.8113856 -0.7386353 0.3937079 -1.1424726 0.9266808 1.0418288 1.2399367
-1.5689859 0.9040121 0.28839108 -2.3451724 -1.4397156 0.698135 0.08209396 -0.8536774
-0.08027058 -0.82896346 0.5165332 -0.1896413 3.016098 0.48849428 -1.380313 -0.38856873
-0.4221637 0.37581798 0.709761 -0.31328803 0.4752062 0.532865 0.561235 -1.3859478
0.8370446 0.41872817 -0.41548362 0.9934835 0.56809926 -0.5197949 1.6327876 1.7026092
2.1993344 0.16530053 0.18340617 0.88755214 -0.39511025 0.3681817 -0.1749945 -0.76799405
0.25975192 -1.9984199 -0.6428159 -0.24558303 -1.1075914 -0.011269988 -2.5859988 -1.5082593
-0.77645934 -1.4145352 0.41424847 -0.42107937 0.6102195 1.2743 0.27141434 -0.36389935
1.8383069 -1.1204112 -0.74141544 0.6173878 -0.57454705 0.08532468 -0.46879566 0.16653925
-1.2623969 -1.244198 1.9532917 -0.329965 -2.2658732 -1.9709852 0.22791488 1.4898727
0.8385376 1.1331657 -2.814707 -0.43002027 0.38174847 0.5059324 -0.4276401 -0.024813715
1.2474196 0.8084345 0.54898006 -0.51487374 -2.695601 1.0647854 -1.9757121 -2.0455134
0.4485472 -0.3930749 -0.2016616 0.42973468 -0.9136538 1.2840995 0.278553 -1.169039
-2.8873417 -0.2090784 -0.14653811 -2.1022592 -2.143439 -2.0155172 -0.25648844 0.064075336
-1.3716607 -0.5591483 -1.1100919 -1.4543817 0.7972957 1.4141234 -0.8347222 0.6516607
-1.7000704 0.43028006 -1.7888715 -0.35328 -1.0433458 0.20682946 0.07261742 2.4940655
-1.3833983 0.7345681 0.39242917 -1.645313 1.1913923 -0.93187386 0.38316137 0.4046772
-0.42065004 -1.8893261 -0.51912576 -0.043012675 -1.4426345 0.5797025 -0.79177666 1.1270236
0.52078414 0.20845152 0.70022064 0.5585853 1.5568408 0.07237389 0.46634233 -0.32101324
1.8806415 0.80512375 1.2408223 -0.37813976 -1.5984701 0.89421207 0.5936236 -1.9779164
-0.31484374 -1.3018221 1.0435734 -1.9840134 0.029817251 -0.6276814 0.3136167 1.3595778
0.43490842 2.3911731 -0.38000172 0.18456224 0.14344917 0.6144963 1.9682912 -2.0391881
-0.3873416 -0.2294693 1.549895 0.41590837 1.229815 -1.1800007 1.8226482 1.5870467
1.3397782 -0.97273695 -0.088619635 0.4611629 0.28298298 0.6635086 -0.30298057 0.6925533
-1.0952284 1.0858091 -0.26786542 0.6042368 0.0049631735 2.196366 -2.1751015 0.574225
-0.71793354 0.3273436 -1.3343629 -0.5480527 0.03217996 0.45627978 0.072227776 -0.10761674
1.6117712 -1.6676333 -0.7397337 -0.28616184 1.6178031 -0.0143091045 0.09307403 -0.034166787
-3.4893105 0.53141797 -0.9707109 0.7226765 0.04060019 -0.26868507 1.1381909 0.50993997
0.5444894 -0.3549904 0.21559432 0.6280022 -0.14779143 -0.23229764 2.2188995 -0.05973859
-2.7785342 -1.7624874 0.49954924 -1.7222495 -0.470149 0.6616191 1.4600066 -0.8014139
0.049139503 1.2921504 1.0754793 -0.56073856 -0.6142678 0.7469281 0.29268432 1.073384

linear1.weight f4 [128, 25]
00000000: 7385 3ebd c26b e5bd 1568 e63e cd18 6a3e
00000010: 9173 1bbf 46e5 7d3d e523 963d fb3c 583e
00000020: 90f8 c0bd ad54 fe3e 7521 123f 28b8 73be
00000030: 0e74 b6be 9c3d 1c3e dc99 39be d450 dcbe
00000040: fab6 e23e 2bba f53d 4823 963e 3e6f ce3e
00000050: ef4b 203f 7f72 06bf ab8d 25bd 502b c9bd
00000060: 1cbe 833e dc4b f6be b271 d0bd f10d 4f3f
00000070: 0121 b43e ec6a af3d 2611 9abd 5e9f 07bc
00000080: c96a ac3e f66a 5cbe 13af 003f 9c62 a73e
00000090: 10b0 143f 2a13 923e 3fed 8abe 111b cdbe
000000a0: 9a79 89bd 6d4e 90be 79d6 b03e 9923 173e
000000b0: d53e 1abe addd cfbe 78f5 51bf 35b0 b2bc
000000c0: d3f0 21bf 841a e53d b1c3 25bd fc44 0c3e
000000d0: 9e1e 0dbe 33fd bcbe d448 23be 4aed 39bd
000000e0: 5b62 1c3e fbc6 c83e 0391 12be 4234 ad3a
000000f0: 2ca3 223f e594 1cbf be2e 453f 836d 8a3d
00000100: 346f 193f b074 4d3e 6085 7a3e 7507 e53d
00000110: 01c1 b1bd 45b6 60be 2ec2 fabe a0aa d13d
00000120: b631 a8be 1265 95be 0231 2cbf f775 e33e
00000130: 6517 9dbe 624c 523d ebd6 15be 63ce febc
00000140: c711 26be 90a3 16bf 538e 5bbd 489c 3f3e
00000150: 47f4 1ebe 29b1 633d 0ac3 a23e 296a e9bd
00000160: 2cd1 993e 09cf c83e 0343 f43c 8d65 bf3d
00000170: b6f7 c03d b06f 103e 08ff 623e b8f4 69be
00000180: c1fd acbe 2add 5c3e daf7 2e3d 6456 9ebd
00000190: 0364 6abe cab6 3cbe ec27 aabe 50e3 03be
000001a0: 18d8 c1be ff21 e63e 2e9d cc3e 1bbb bcbe
000001b0: 5d3f bd3e cd5d 11bf 3a5b 9bbe 70c6 283d
000001c0: 0021 823d 9814 ddbe 6a33 543f 7e52 0ebf
000001d0: c87c 4d3e c932 75be fb10 9abd 8d9a 35be
000001e0: 2dfb a6be 2c0d 123e d8cb 863d 2bc2 733f
000001f0: 9791 e7be 020f 263e ce52 bdbc 5f9f 553e
00000200: 5ac2 8fbe dca4 8c3e 40e0 ddbe 276a 9bbe
00000210: 9b7a c03e 1eac 853d f56f eebd f78d c8be
00000220: 5d9a 7e3e ef8c 533e 9d91 493d 4470 24bc
00000230: 1149 1bbf 4c65 b4bc 4453 8b3e 986b 0bbe
00000240: 56a6 49bd 6890 bd3e 3593 963e 1b05 2a3e
00000250: 871d babc e8d5 bcbd c87a 3a3f d416 cdbe
00000260: c18c 863d 058d 323f 5e3d da3d 6ec5 d7bc
00000270: 7357 9fbe 3bb4 31bf d51a 813e 6ea8 b3be
00000280: 06fa 483d ecef 3d3e a5bb 373f 9541 123f
00000290: c30c 52bf 356f 903d b7bf 8e3e 236d 0c3f
000002a0: e40e c1bd 6861 283b c036 fe3e 80ce a03e
000002b0: 7da5 b9be 5e0f 203f 05d3 933e a7d1 10be
000002c0: e7ab 0dbe 50d3 7abe a137 bf3d 0b31 ffbe
000002d0: df8f 553e d7a8 debd 51fe 72bb 0fa8 e83e
000002e0: 2ff8 fe3d c06e 18be 853b 14bf 3709 c0bd
000002f0: ef67 2d3f e3b6 c53e 3ef5 1bbe 82c0 a3bd
00000300: fd17 a53e 3d31 263e e079 793e 16be 903d
00000310: 0bfb d23e dba3 3a3f fa2e 763e cfa3 2dbf
00000320: 3e2d 4c3e 80fb 7a3d 2246 d4be b14a 9a3e
00000330: 4591 eebe e99f aa3e 62a2 4bbe 46ef 81bc
00000340: fa62 b4be b826 0dbd 81fb 84be c74e 37be
00000350: 8079 533d abd2 aa3e 020d a23c 3ebf 813e
00000360: 4254 babe 030f 0abf e12f 3e3e db06 2ebe
00000370: 14d6 de3e 279c 393d eb2f c9be 04ea e33e
00000380: 1271 273f d59b 7dbc 42c9 a03e bbcf db3e
00000390: d2c4 3d3e e73c af3e 5d7b b2bc bc2d 4abd
000003a0: 51d7 f73e 8f96 25bf 108b a0be 18d1 cb3e
000003b0: d850 57be 8c44 53bf 319c f23e e1bf 9e3e
000003c0: 4304 023f f39a 18bf 54e3 16be 2964 233d
000003d0: 7086 91be 4358 803e ef16 0abe f0a7 25bf
000003e0: 71c3 e63d 1323 a5ba a166 a03e 7c60 833d
000003f0: f63b e33e 630f 333f 598c 8abd 9940 b7bd
-0.046513986 -0.11202194 0.45001283 0.22861023 -0.60723215 0.06198623 0.07331065 0.21117012
-0.094224095 0.49673977 0.570823 -0.23800719 -0.35635418 0.15257877 -0.18125099 -0.43030417
0.44280225 0.11998399 0.29323792 0.40319246 0.62615865 -0.5251846 -0.04041831 -0.09822714
0.2573098 -0.4810475 -0.10177936 0.8088065 0.3518143 0.085653156 -0.07522802 -0.008277742
0.3367522 -0.21525177 0.5026714 0.3269242 0.5808115 0.28530246 -0.2713413 -0.40059713
-0.06712647 -0.28184834 0.3453863 0.14759673 -0.15063031 -0.40598813 -0.8201518 -0.021812538
-0.63258094 0.11186698 -0.04046983 0.1369819 -0.13781211 -0.36911926 -0.1594575 -0.045392312
0.15271895 0.3921431 -0.1431313 0.0013214427 0.6353023 -0.61164695 0.7702445 0.06759169
0.5993531 0.20064044 0.24464941 0.11183063 -0.08679391 -0.2194453 -0.48976272 0.10237622
-0.32850426 -0.29178673 -0.6726228 0.44425938 -0.3068191 0.051342376 -0.14632766 -0.031104272
-0.16217719 -0.58843327 -0.053602528 0.1871196 -0.15522872 0.055588875 0.31789428 -0.113972016
0.30042398 0.39220455 0.02981711 0.09345541 0.09422247 0.14105105 0.22167599 -0.22847259
-0.3378735 0.21568742 0.04271684 -0.077313215 -0.22889714 -0.18429103 -0.33233583 -0.12879682
-0.3786018 0.44947812 0.3996367 -0.368615 0.36962405 -0.56783754 -0.30343038 0.04120487
0.063539505 -0.43179774 0.8289095 -0.55594623 0.20067132 -0.23945154 -0.0752277 -0.17734738
-0.32613507 0.14262837 0.06581849 0.9521815 -0.45228264 0.16216663 -0.023110773 0.20861576
-0.28077966 0.27469528 -0.43335152 -0.30354425 0.3759354 0.065269694 -0.11642448 -0.3917081
0.24863572 0.2065923 0.049211133 -0.010036532 -0.60658365 -0.022020958 0.27211964 -0.13615263
-0.049230896 0.37024236 0.29409185 0.1660351 -0.022719158 -0.09220487 0.728436 -0.4005648
0.065698154 0.6974643 0.10656236 -0.026339259 -0.31121406 -0.69415635 0.25215784 -0.3508944
0.049066566 0.18548554 0.717707 0.5713132 -0.8205072 0.07052461 0.27880642 0.5485403
-0.09426668 0.0025692824 0.49651146 0.31407547 -0.3625907 0.6252345 0.28871933 -0.14142476
-0.13835107 -0.24494672 0.09336782 -0.49842104 0.20855664 -0.108720474 -0.0037077854 0.4544072
0.12449681 -0.14885998 -0.5790332 -0.093767576 0.67736715 0.38616094 -0.15230271 -0.07995702
0.32244864 0.1622972 0.24362898 0.07067506 0.41207156 0.72906274 0.24041358 -0.6782808
0.19939134 0.061275005 -0.41459757 0.3013511 -0.46595207 0.33325127 -0.19886163 -0.015861165
-0.35231763 -0.034460753 -0.25973132 -0.17901145 0.051629543 0.33363852 0.019781593 0.2534122
-0.3639241 -0.53929156 0.18572952 -0.16994803 0.43522704 0.045314934 -0.3929437 0.44514477
0.65406907 -0.015479048 0.31403548 0.42931923 0.18532112 0.34226152 -0.02178734 -0.049360022
0.4840646 -0.6468286 -0.31356096 0.39807963 -0.21026933 -0.8252647 0.4738479 0.31005767
0.5078775 -0.59611434 -0.14735156 0.039890442 -0.2842288 0.25067338 -0.13485311 -0.6470938
0.11267746 -0.0012598954 0.313283 0.06414887 0.44381684 0.69945353 -0.067650504 -0.08947868

linear1.bias f4 [128]
00000000: ebc1 393e 0fad 9f3e b925 5b3e 8ca9 4a3c
00000010: 86d3 7a3e f517 07be d178 b6be 57fe a0be
00000020: a916 51be dcab ebbd 86ca e63d 6a5b 263d
00000030: e1fa 323e dd13 863e 90bc f9bc f295 fd3d
00000040: 8925 4f3e bde0 7b3e c5e9 38be 0c69 9d3e
00000050: bad9 16bc 9b21 cabc 323c a23e 1323 5b3e
00000060: 3c61 633e 3a49 3cbe e671 86bc 3e7e 433e
00000070: 5f09 0ebe 4c39 e33d 31dc 38be 44f6 b9bd
00000080: fbdc 9d3b 4d5d 52bd 595f 06be 7224 2cbe
00000090: 26ea 2bbe 7a67 043c a70e 743e 14c5 8d3e
000000a0: eea4 03bc 3122 543e 2179 683e cd0a 1dbe
000000b0: f0da 51bd 7968 2bbb a2dc 9b3e afe2 2d3e
000000c0: cd33 e33d 8dd6 aa3e c2b1 a3be 3fad 883e
000000d0: 6703 39be 44b8 d93c 60cb 4b3d edcb 883e
000000e0: 7aee 92bb e141 cfbc 4add 043d cdda 6c3e
000000f0: 84e2 cdbd 5354 703e d040 873d cf63 7dbd
00000100: 9690 81bd a7a1 9fbe a348 343e 7bbb 923d
00000110: eb71 063e 2c60 dbbd cc04 8fbd 0c08 073e
00000120: 8961 713d 95c6 193e d991 043e fa43 05be
00000130: 8624 7cbe ac1e 96be c8ba 843e 0d95 023f
00000140: dbef c43d fd12 1c3d 47c0 2cbe c3e3 eebd
00000150: d84b 1cbc 7058 66bb a547 8fbd b9c9 a03e
00000160: 78ff 2e3e 0642 2a3e 2197 12bd 739d fbbd
00000170: 595e 543e 47b0 a83d beda 7ebe 496a babc
00000180: a7f7 65bd 7f30 30bd a393 5a3e 188d 42bd
00000190: 5032 2f3e ea5d 3cbe 123c 58be 74a2 e53c
000001a0: 8998 fa3c 1556 79be 836e 9c3e 3625 bcbd
000001b0: 15e8 b4bc 84c1 6abe a782 6f3e 18bb 8e3d
000001c0: f7c2 153e 12c9 80be 9dd6 2a3e eee9 94be
000001d0: 9e7f 413e 3e50 413e 16fa 523e 2720 27bd
000001e0: acac 1dbe 32ba 263e 912f acbd 9c9e 243e
000001f0: 5f34 b73d 1e36 b83d 5d15 323e 4dd1 943d
0.1814038 0.3118672 0.21401109 0.012369525 0.24494752 -0.13192733 -0.3563905 -0.31444046
-0.204188 -0.11507389 0.11269097 0.040614523 0.17478515 0.2618703 -0.030485421 0.123821154
0.20229162 0.2459745 -0.18057926 0.30744207 -0.0092071835 -0.024674227 0.3168655 0.21400099
0.2220506 -0.18387309 -0.016411733 0.19091126 -0.13870762 0.11094913 -0.18052746 -0.090801746
0.0048176027 -0.05135851 -0.1312231 -0.16810778 -0.1678854 0.008081311 0.23833714 0.2768942
-0.008034928 0.20716168 0.22702457 -0.15336151 -0.051234186 -0.00261548 0.30441767 0.16981004
0.110938646 0.33366814 -0.31971556 0.26694676 -0.18067704 0.026577123 0.0497545 0.26718083
-0.004483995 -0.025299968 0.0324376 0.23130341 -0.1005297 0.23469667 0.06604159 -0.061862763
-0.06326406 -0.31178018 0.17605834 0.07164665 0.13129394 -0.10711703 -0.06983337 0.13186663
0.058930907 0.1501716 0.12946261 -0.13014212 -0.24623308 -0.29320276 0.25923753 0.51008683
0.09616061 0.038104046 -0.16870223 -0.11664536 -0.009539567 -0.0035147928 -0.06996087 0.31403902
0.17089641 0.16626748 -0.03578866 -0.122858904 0.20739116 0.08236747 -0.24888131 -0.022755759
-0.056144383 -0.043015 0.21345381 -0.04749784 0.17109036 -0.183952 -0.21116665 0.028031565
0.030590313 -0.24349244 0.30553064 -0.09186785 -0.022083322 -0.22925383 0.23389684 0.06969279
0.14625154 -0.25153404 0.16683431 -0.29084724 0.18896338 0.18878266 0.20603213 -0.040802147
-0.153979 0.16281965 -0.0840751 0.1607613 0.08945536 0.08994697 0.17390962 0.072664835

linear2.weight f4 [65, 128]
00000000: 6f20 b1bc 10d1 be3e 0740 e23c e04f fe3d
00000010: 5446 11be 2a2d 8dbe b881 113e d343 28bd
00000020: 0645 c03d e387 a7be 9492 653e 1d77 433f
00000030: 0355 0c3e fc83 77bd 7a22 8c3d 4b9d dfbb
00000040: a618 363e b456 91be 4602 d6be 6b0e 18be
00000050: 856b adbe 19ab c9bc c31f 4abd a056 a23c
00000060: 28ba 673e 1294 063f f435 e3bc 2c59 cbbe
00000070: 00c6 c83c 23c2 133f 16cd b73e da9b f13d
00000080: d238 e93d 6aee e2bd f1f5 333e 4f7b e2be
00000090: 96ac 933e 560e 1f3f a356 d4bc 56b3 bf3e
000000a0: b191 82bb 8cea 933c 0240 08bd dcaf 6dbd
000000b0: 26cc 2dbe 96c0 103a bd24 6dbe 89f1 153e
000000c0: 82b0 713e 39cd 753e d2bd a13d c908 693e
000000d0: 079d 86be 4af8 8cbc 3bd2 eabe 279d 09bd
000000e0: d5b5 d6bd 5389 f0be 79e2 7fbc b7c6 a23d
000000f0: 6512 073e 918a 4fbe 78dd 2abc 7ff0 3e3f
00000100: 4912 093e 1979 7dbe 537c a73d 3f02 20be
00000110: 0f63 62be 4dc4 8cbe 1c7f 12bd c458 a83d
00000120: 035d 283e a6a1 23bd b881 83bd 6044 52be
00000130: 895b 793d 0e16 cbbe c1c2 8cbe 212e 2ebf
00000140: b871 fdbd 8b88 abbe 1a8a 363e 19d5 67be
00000150: 1588 3d3d 3d8e 93be d77e bdbe 9a8a 543e
00000160: 225e a93e c79e 38be a24a b0be 8226 25be
00000170: 2a8e 943e 62fa 32bc ebdf 413e af63 09bf
00000180: 9bb6 0b3e e637 0bbe 8193 63be 65f6 533e
00000190: 3aae 593e f8b3 9abd 3489 64be 3827 153d
000001a0: aa13 36be 6375 21bf 78bf 533e 29d1 98be
000001b0: 2391 803e 194e 3bbe cc89 553e 3602 7d3e
000001c0: 57e1 df3e 9f5b 0e3d 7bc3 b73a d1b5 963e
000001d0: 7060 6e3e 0dd1 ec3e 1895 a53e 2265 77be
000001e0: 377e f7bd ba0b 4bbe 240c ef3d 0402 fe3d
000001f0: 3e07 e6be 43ef 5c3e 21a7 cf3e c0f9 36bb
00000200: d47b 8d3e b9cb cf3e 7c7f 8e3e 8554 753c
00000210: 4f51 343f 3887 983d 5b01 e0be 55f0 233e
00000220: 6c30 75be 1fdd c3bd e197 cfbe 4276 58be
00000230: 47cb 463e 9159 3fbd 481a 303e 38e4 55be
00000240: d45a 0e3e d2fd e9bd 89e4 39be 78a1 e5bb
00000250: df5d eabd 4ace b5be 8b3a 423d dfc2 03bd
00000260: b885 92be 1e4e f5be 4394 43be 1805 19bd
00000270: 4023 c1bd 0eb4 0e3e 0e82 cabd 0f98 3bbe
00000280: b821 be3d db27 a1be 860c 09be 45ca 8e3d
00000290: 6a55 8d3e f138 033f 9a9f a1bd 2b60 083f
000002a0: 2b87 7f3e c712 bc3e 6f1c 42bd a187 3abe
000002b0: 3c47 a2bd 7881 21bc a8c7 d2ba 241f 3bbe
000002c0: 22d7 94be 0ffe b03d 0a2a a53e 5fe5 3cbe
000002d0: 8f28 16bf 74e6 463c 763d 183e 9d49 03be
000002e0: 038f e83d 6aba 1a3e 4e82 163e da49 89bd
000002f0: 236e da3c 9e49 603e e8cc 8bbe e57e 393e
00000300: 4b2e cdbb b7f3 d23d f223 b5be 5480 a5be
00000310: 381d 67be 9308 493d 853b 653d 3790 bbbe
00000320: 7c6d e33b a284 813d 0954 0fbd 3383 003e
00000330: 46f8 433e b464 c1bd 6787 b7be 1666 82be
00000340: 1122 033f 4ae0 453e c23e 153e 002d f03c
00000350: 375e 31bc bd8a 89bb 5a21 75bc 3338 6c3d
00000360: 64de 5d3e d22b 413e b869 e5bc 52d2 11be
00000370: 8ce1 b43d 04e5 aabe e1d3 313e 7829 1b3e
00000380: bca9 af3e 7ccb 2dbd 1f83 47be 16f4 fb3d
00000390: 3225 bebe fcd9 dd3b 680b ccbd 8a96 a03e
000003a0: 957c 08bc ad0e 93be bd2f fb3e 5f82 d83e
000003b0: a00c d73c 0cc3 8b3e a5a9 4abd 92d0 55be
000003c0: 1682 a1be 8a20 883e 603a 4bbe 26ef 56be
000003d0: 8138 993c d104 a7bd 9494 323e 57cc 363e
000003e0: 0863 e7bd 56a6 313e 74a4 063e 97ed 41be
000003f0: 54f2 293e e1c2 1a3e 3817 77be 54ea f3be
-0.02162191 0.37268877 0.027618421 0.12417579 -0.14186984 -0.2757352 0.1420964 -0.041080307
0.09388165 -0.3272086 0.22419196 0.7635363 0.13704304 -0.060428604 0.068425134 -0.0068241707
0.1778284 -0.28386462 -0.4179861 -0.1484925 -0.33871093 -0.024617719 -0.049346697 0.019816697
0.22629607 0.5256969 -0.027735688 -0.3971647 0.024508476 0.57718104 0.35898656 0.117973045
0.11387791 -0.1108063 0.17574288 -0.44234702 0.2884261 0.6213125 -0.025920218 0.3744151
-0.003984653 0.018056177 -0.033264168 -0.05802904 -0.16972408 0.00055218616 -0.23158546 0.1464292
0.23602489 0.24004067 0.078975335 0.22757258 -0.26291677 -0.017208237 -0.45863518 -0.033597138
-0.104839005 -0.4697977 -0.01561796 0.07948058 0.1319061 -0.20267703 -0.010428779 0.7458572
0.13385881 -0.24753226 0.0817801 -0.15625857 -0.221081 -0.27493516 -0.035765752 0.08220056
0.16441731 -0.03994908 -0.06421226 -0.20533895 0.06087831 -0.39665264 -0.27492335 -0.6803914
-0.12375206 -0.33502612 0.17826119 -0.22639884 0.046272356 -0.28819457 -0.37010834 0.20755997
0.3307963 -0.18029319 -0.3443194 -0.16127971 0.29014713 -0.010923954 0.18933074 -0.5366773
0.13643877 -0.13595542 -0.22224237 0.20699461 0.21257868 -0.075538576 -0.22317964 0.036414355
-0.17780939 -0.6306974 0.20678508 -0.29847077 0.2511073 -0.1829151 0.20853347 0.24707875
0.43726608 0.034755345 0.001402005 0.2943559 0.23278975 0.46253243 0.32340312 -0.24159673
-0.120846204 -0.19828692 0.116722375 0.12402728 -0.449274 0.21575646 0.40557197 -0.0027919859
0.27633536 0.40585116 0.27831638 0.014973764 0.7043657 0.07447666 -0.43751034 0.16009648
-0.23944253 -0.0956366 -0.40545562 -0.21138862 0.19413482 -0.046716277 0.17197526 -0.2088784
0.13901836 -0.114253655 -0.18153585 -0.007007774 -0.11443686 -0.3550895 0.047419112 -0.032168265
-0.28617644 -0.4791116 -0.19099526 -0.037358373 -0.094305515 0.13935873 -0.09888087 -0.18319725
0.09283775 -0.3147572 -0.13383684 0.069721736 0.27604228 0.5125876 -0.0789177 0.5327174
0.24953906 0.36733076 -0.047390398 -0.18215801 -0.07923743 -0.009857528 -0.0016081231 -0.18273598
-0.29070383 0.08642208 0.32258636 -0.18446873 -0.5865564 0.012139905 0.14867195 -0.1282105
0.11355402 0.15110174 0.14698145 -0.06703539 0.026663845 0.21903083 -0.2730477 0.18114813
-0.006261622 0.10300391 -0.35378987 -0.3232447 -0.2256974 0.049080443 0.055964965 -0.36633465
0.006940542 0.06324126 -0.03499225 0.12550049 0.19137678 -0.09443036 -0.3584549 -0.2546851
0.51223856 0.1932384 0.14574721 0.029318333 -0.010825685 -0.004197447 -0.014961565 0.057670783
0.21666867 0.18864372 -0.028004512 -0.14240387 0.08832082 -0.3337785 0.17365982 0.15152538
0.34309185 -0.042430386 -0.19483612 0.12302415 -0.37137753 0.0067703705 -0.09963113 0.31364852
-0.008330484 -0.28722134 0.4905986 0.42286965 0.026251137 0.27297246 -0.049478192 -0.20880345
-0.3154456 0.26587325 -0.19846487 -0.20989665 0.018703701 -0.081552155 0.1743949 0.17851387
-0.112981856 0.17348608 0.13148671 -0.1893829 0.16596347 0.15113403 -0.24129951 -0.47639716

linear2.bias f4 [65]
00000000: c797 023d 2c7f 063e d7e8 71ba 542d 263b
00000010: b524 af3d 6c28 cb3d e6a2 123d ea03 e93d
00000020: 48cb 35be 002b 7ebd 3bfd bcbd b40a 4b3d
00000030: 0b80 9a3b ce56 603d 97c4 0f3e 4c54 483e
00000040: cb0e f1bd 5015 28bb 3498 1bbe a5dc 3dbd
00000050: 2934 efbc 1a66 a53c 96eb 50bb eb05 f53d
00000060: 2375 c3bc 204f 8f3d 51a4 23bd 0124 8c3d
00000070: 1df6 503e 481f 54bd 2f92 bdbc 2464 a0bd
00000080: 6a12 353e d675 a23d 2a6c ffbc 1f41 85bc
00000090: 4be7 2dbd 1a4b f83d c8a7 7a39 433f dfbd
000000a0: 496a a2bb ebbf 17be a836 f23c 3d93 883b
000000b0: 8cf4 74be e3c5 1d3d 23e8 b2bd 3146 1abe
000000c0: 6643 18bc dca6 ccbc 2ee3 0abb 1e1a 49be
000000d0: 83ae d43c 9903 fe3d a37e f3bd d3eb 15bd
000000e0: 0f8c a8bc c9cf 333d 56a0 e5bd 2ec0 19bd
000000f0: 535a 9fbd 4c4b 6fbd d3af b43d 3ada 84bd
00000100: 06c9 e3bd
0.031883027 0.1313445 -0.0009228116 0.0025356608 0.08551923 0.09919819 0.035799883 0.113777
-0.17753327 -0.062052727 -0.092279874 0.049570754 0.004714971 0.054770283 0.14039837 0.19563407
-0.117704 -0.002564747 -0.1519478 -0.046353 -0.029199677 0.020190287 -0.0031878701 0.119640194
-0.023859566 0.06997514 -0.039951626 0.06842805 0.20406385 -0.051787645 -0.023140995 -0.078316
0.17682806 0.07932632 -0.031179506 -0.016266404 -0.042456906 0.121236995 0.00023904361 -0.10900738
-0.004956518 -0.14819305 0.029567078 0.004167943 -0.23921412 0.038518798 -0.08735683 -0.15065838
-0.009293413 -0.024981909 -0.0021192539 -0.19638869 0.02596212 0.1240303 -0.118893884 -0.036601853
-0.020574598 0.04389933 -0.11212222 -0.037536792 -0.077809 -0.058421418 0.08822598 -0.06486936
-0.111223266
