data/pretrained_embeddings/kmer3_len25_epoch5_cbow_model.pt (torch_old, 54383 bytes, 5 tensors)

embeddings.weight f4 [65, 25]
000000 7b c8 b8 bf 7d f2 03 40 50 1d 29 3f d5 f9 59 bf
       -1.4436182 2.0616753 0.6606035 -0.8514684
000010 45 6d 17 40 76 52 32 be 5d 77 a3 3f b7 d3 ed be
       2.3660443 -0.17414269 1.2770802 -0.46450588
000020 8b 2f da bf e4 38 99 3d 6c c1 63 bf b0 84 a4 be
       -1.7045759 0.07481554 -0.88967013 -0.32132483
000030 06 53 02 3f 20 95 42 3e 58 d7 10 40 ff 05 9e bf
       0.50907934 0.19002199 2.2631435 -1.234558
000040 40 ae 44 3f f0 1b 38 be 61 cb a4 be 0a 26 f0 3e
       0.76828384 -0.17979407 -0.32186416 0.46904022
000050 01 21 9e 3e f8 30 8b be 2b 2c 16 c0 2a 29 83 3f
       0.30884555 -0.27185798 -2.3464458 1.0246937
000060 96 07 4f bf d3 ee 01 bf 8c 18 60 3f 63 a3 8a bf
       -0.8087095 -0.5075504 0.87537456 -1.0831112
000070 e0 93 8a 3f da a6 d7 3e 50 95 2d bf 19 11 8b bf
       1.0826378 0.42119485 -0.6780596 -1.0864593
000080 de fa 06 be 59 16 97 3f 01 2f 0b 40 60 bb d6 3f
       -0.13181636 1.1803695 2.174744 1.6775932
000090 9d 04 e2 bd d4 dc 9c 3e 0f 5f 91 3e 41 9a 73 bf
       -0.11036036 0.30637228 0.28392836 -0.9515725
0000a0 7e b6 f2 3f 6f 17 98 bf e4 6c d0 bf c8 f6 e5 bf
       1.8961942 -1.1882151 -1.6283231 -1.7965937
0000b0 c9 3b 30 bf 2f c8 5d bf e9 10 1c be 11 6b d6 bf
       -0.68841225 -0.8663358 -0.15240826 -1.6751424
0000c0 cf 41 91 3f c1 aa e8 3e a7 7a 64 bf 07 b0 85 3f
       1.1348208 0.45442775 -0.8924965 1.0444344
0000d0 f0 bf 4a 3f 05 a8 9f bf de 67 c0 3f 79 6c 10 3f
       0.79199123 -1.247315 1.5031698 0.56415516
0000e0 72 42 89 bf 7b b7 9d be f1 3a 3d bf c4 cf 6d bf
       -1.0723403 -0.30804047 -0.7391806 -0.9289515
0000f0 7d 04 a9 3c 64 8e 16 40 ea 07 00 bf 84 c1 92 3f
       0.020632023 2.3524408 -0.50012076 1.1465306
000100 13 3c 23 bf ef 53 9f bd 6e ba d7 bf b0 e8 14 40
       -0.6376354 -0.07779681 -1.6853769 2.326702
000110 2d 46 bf bf 9d aa d7 3e 55 42 4a bf 55 85 dd 3f
       -1.4943291 0.42122355 -0.79007465 1.7306315
000120 46 de 65 3f 7d 25 57 bf 20 7e 3a 3f 8e 7f c6 3f
       0.8979229 -0.8404158 0.728487 1.5507677
000130 3c c7 60 3f 75 c8 cd bf 62 3c cf 3e 62 6e f6 be
       0.8780401 -1.60768 0.40475756 -0.4813109
000140 ec 5c cf 3f 3e fe 62 bf 9f 75 83 3f 73 e8 06 c0
       1.6200233 -0.8866919 1.027027 -2.1079376
000150 42 f7 54 3e 65 88 a4 3d 0d 24 f1 be 8e b8 f3 3f
       0.20797446 0.08033828 -0.47097817 1.9040697
000160 ab 68 fb 3e 43 c7 82 be 4b 65 2f 3e e5 f3 ab 3f
       0.49103293 -0.2554265 0.17128484 1.3433806
000170 c1 7b aa be 52 91 49 bf f6 b5 00 3f f3 0e 77 3f
       -0.33297542 -0.78737366 0.5027765 0.96507186
000180 e6 c5 79 3f 2c e7 fe 3e ab fb f1 3e 93 3c eb 3e
       0.97567594 0.49785745 0.4726232 0.45944652
000190 1a 51 08 40 ed 1f 9b bf 0e 0f 03 bf fd ae 60 bd
       2.12995 -1.2119118 -0.51194847 -0.05485438
0001a0 42 8c e7 3e cb 0d 90 3f de 06 d4 be 43 69 0c bf
       0.45224196 1.1254209 -0.4141149 -0.54848117
0001b0 21 b9 14 bf 4b 4f 42 3e 33 07 1a 3f 69 e4 58 3e
       -0.58094984 0.1897556 0.60167235 0.21180882
0001c0 51 00 65 bf d4 f1 20 3f ce 52 dd 3f 2b c4 26 be
       -0.8945361 0.62869 1.7290895 -0.1628577
0001d0 5a 26 c4 be 38 16 b6 bf 3a a7 6d 3f 92 e3 0f 3f
       -0.3831051 -1.4225531 0.9283329 0.5620662
0001e0 0b 1e 69 3f 51 0e 5b bf db d6 84 bf 8c 31 0a 40
       0.91061467 -0.8556872 -1.0378069 2.159274
0001f0 50 de a6 3f 47 f4 e3 bf 00 e3 09 bf a1 c4 13 3f
       1.3036594 -1.7808923 -0.53862 0.57721907
000200 45 1d a7 bf 11 d9 c8 3f 04 f2 19 40 00 94 8a 3f
       -1.3055807 1.5691243 2.4053965 1.0826416
000210 ca a9 16 3f a5 b8 6e 3f 8c 36 d8 3f c8 4d 01 3f
       0.5885283 0.93250495 1.6891646 0.5050931
000220 17 e4 f0 3f ac 5c a9 bf 97 45 8f bf f1 3c 8e be
       1.8819607 -1.3231406 -1.1193112 -0.2778087
000230 4d fa 1d 3f d1 48 c6 bf cf 91 90 bf 44 75 05 bf
       0.61710054 -1.5490972 -1.1294497 -0.5213206
000240 14 f2 ae bf bb 6f 22 3e 5d 97 34 40 f4 25 d5 be
       -1.3667626 0.15862934 2.8217385 -0.41630518
000250 64 c4 8f bd 23 2e 46 bf 61 07 0f 3f 77 25 8c 3f
       -0.070198804 -0.7741415 0.55870634 1.0948933
000260 59 45 3f be c6 77 1d be 87 8d fc 3e e5 30 f9 3d
       -0.18678798 -0.15377721 0.49326727 0.12167529
000270 43 89 a2 3e 09 23 15 bf 2f ef 69 3c 21 62 40 be
       0.31745347 -0.58256584 0.014278217 -0.18787433
000280 d8 85 f7 3f 97 7e bc 3f c8 9c 12 be 75 44 be bd
       1.9337721 1.4726132 -0.1431762 -0.09290401
000290 e6 10 80 3e 2b df 35 bf 11 91 d8 bf 1b 74 78 3f
       0.25012892 -0.7104365 -1.6919271 0.9705216
0002a0 2c fc 89 3f a2 7b 94 3f 6a c5 da 3f bd ef 97 be
       1.0780082 1.160023 1.7091496 -0.29675093
0002b0 ba b9 ab bf ae 13 3e bf ce b9 d1 3c 44 cc c3 be
       -1.3416054 -0.7424878 0.025601294 -0.3824178
0002c0 9b 43 06 bf 6f e9 93 be af 0b 60 bf e4 8c 62 bf
       -0.5244691 -0.28889033 -0.8751783 -0.8849623
0002d0 96 28 20 be 07 a5 fd 3e 70 a3 0e bf ee 79 28 c0
       -0.15640482 0.49539968 -0.55718136 -2.632442
0002e0 65 21 38 3e fb be f0 be e4 72 f4 be 5e fa b0 3e
       0.17981489 -0.47020707 -0.47743905 0.34566015
0002f0 54 9d 59 3e 0b 88 69 bf 08 8b b2 3e b1 30 01 c0
       0.21251422 -0.9122321 0.34871697 -2.018597
000300 ec ee 3c 3f ba ec 54 bf 7e 41 a8 3f 7d 3d f9 3f
       0.73802066 -0.83173716 1.3144987 1.947189
000310 e2 85 d6 be b7 30 7c 3f 7f 8d 8a 3f 08 6c 1c 3f
       -0.4189902 0.9851183 1.0824431 0.6110234
000320 87 09 de 3e 6c 1f 35 40 15 46 da 3e 7f e1 77 3e
       0.43366644 2.8300428 0.42631593 0.24207114
000330 57 54 f2 bd b5 6f 0a bf c8 f9 0e 3f b0 d0 e5 3f
       -0.11832493 -0.540767 0.55849886 1.7954311
000340 59 95 d7 be f0 b5 9a be 71 2b f2 be 7e 09 53 3f
       -0.4210613 -0.30216932 -0.47298768 0.8243636
000350 c9 18 f2 3e 4d 64 a7 bf 4c 14 83 bf 38 bb dc be
       0.47284535 -1.3077484 -1.0240569 -0.43111587
000360 11 75 8a 3e 05 9d f7 3e 75 7d 16 c0 4e 67 ed bf
       0.2704244 0.48361984 -2.3514073 -1.8547151
000370 38 65 79 bf dc 55 ca bf 04 b7 6c 3e c5 90 07 3f
       -0.9742007 -1.5807452 0.2311669 0.52955276
000380 db 2c 2a 3f 7f 55 08 c0 57 39 18 bf 43 48 f4 3d
       0.66474694 -2.1302183 -0.59462494 0.11927845
000390 f6 c8 6a bf ac 86 52 bf 9b 4a fd 3f b7 22 87 bf
       -0.9171289 -0.8223674 1.9788393 -1.0557469
0003a0 43 3b b8 3e b5 39 c4 3d 2a b2 b4 bf 94 cc 4f 3f
       0.35982713 0.09581319 -1.4116871 0.81171536
0003b0 63 5b 29 3f 12 46 97 3f 7d bd ad 3f ce 61 f0 bf
       0.6615507 1.1818259 1.3573452 -1.8779848
0003c0 21 32 53 bf 5d ae 17 bd cc 43 ce 3e ee 19 63 3f
       -0.82498366 -0.03703152 0.402861 0.8871144
0003d0 84 b9 06 40 32 15 53 3f c5 ab d8 bf 06 62 27 bf
       2.105073 0.82454216 -1.692742 -0.65383947
0003e0 00 cd 2e bf 9e 71 9c 3e dc f8 b6 3f 85 96 7f be
       -0.68281555 0.30555433 1.4294696 -0.24959762
0003f0 1f 08 31 bf 7b 06 07 bf 7e ab 74 bf 2d c2 7e 3f
       -0.69153017 -0.52744263 -0.95574176 0.9951504

linear1.weight f4 [128, 25]
000000 19 81 3b 3d db 0c b5 3e e7 2d f0 3d 7c 84 52 be
       0.045777414 0.3536137 0.11727505 -0.20558351
000010 08 0a 2e be 75 ab 95 3e 69 78 c3 3e c0 d2 87 3e
       -0.16996014 0.29232374 0.38177803 0.26527977
000020 c8 9d 15 3f e5 ab 66 3e 6a 6a 5f bf f8 d0 37 bd
       0.5844388 0.2252651 -0.8727175 -0.044877023
000030 a6 06 21 3d f2 a2 55 3e 3d 1f d1 3e 04 ab d1 3d
       0.03931298 0.2086294 0.40844145 0.10237697
000040 c1 66 f2 3d 09 34 40 be 5f af 51 3e d7 81 28 3f
       0.11836005 -0.1876985 0.20477055 0.6582312
000050 19 9d 55 bd 82 a8 cd bd 8c d8 ce be 2d 4a 1e 3e
       -0.052151773 -0.10041906 -0.40399587 0.15457983
000060 65 cb 65 3e 95 f9 04 be 31 4e 47 3e 87 e6 20 3e
       0.2244087 -0.12985833 0.19463421 0.15712939
000070 9f 75 0e bf da 76 88 be 0c bf 4b be 25 e3 e8 be
       -0.55648226 -0.26653177 -0.19897097 -0.45485798
000080 6f bd 89 bd 81 58 3b 3e 1d 85 84 bd 0c d6 6b be
       -0.06725585 0.1829548 -0.06470702 -0.23030871
000090 46 c9 08 bf 6d ba 1a be fc 51 a6 3e 5c 76 8e be
       -0.5343212 -0.15110178 0.32484424 -0.27824676
0000a0 18 b4 bb be dc 64 71 3f 8c c2 ee bd bf ba d8 3d
       -0.36660838 0.94294524 -0.116582006 0.10582494
0000b0 11 6e fa be 9f d1 ca be 1f 86 30 3e f4 c4 e0 3e
       -0.489121 -0.39613053 0.17238663 0.43900263
0000c0 f4 86 aa bd 53 fb 18 bf d9 80 91 3d 17 d1 bf bd
       -0.083265215 -0.5975849 0.07104654 -0.093660526
0000d0 7e 66 85 3d 22 e0 47 be ab 8d 86 3e 40 ee c0 bd
       0.065136895 -0.19519094 0.2627996 -0.094204426
0000e0 fa 80 00 bf 9a 4b 06 3e 37 6a 0d be dd 9b 9d be
       -0.501968 0.13114777 -0.13810049 -0.30782977
0000f0 85 ce a7 be eb 2d d0 bd b7 dd 5e 3f cd 74 93 be
       -0.3277475 -0.10165008 0.8705706 -0.2880005
000100 9f 99 00 3d fd 9b 19 bf b0 26 47 be 04 50 b1 bd
       0.031396504 -0.60003644 -0.19448352 -0.0865784
000110 d1 d9 4c 3e a3 f5 25 3f a5 4f d6 be 66 65 42 3f
       0.20004965 0.64827937 -0.4185764 0.7593597
000120 c6 64 2d 3e c0 e1 fb 3e 15 d4 46 3e 64 55 8f bc
       0.16932973 0.4919567 0.1941684 -0.017496772
000130 0c 34 8a 3e a8 97 0f 3f 48 b3 2d bf 24 f3 0b be
       0.26992834 0.56090784 -0.67851686 -0.1366697
000140 b1 2d a1 bf 34 50 25 bf 15 0b 4b 3e 8b e7 8e 3d
       -1.2592069 -0.64575505 0.19828446 0.06977757
000150 54 58 d6 3e 38 6b b2 3d fb 2c 19 bf 49 5e 4d bf
       0.41864264 0.087118566 -0.5983426 -0.8022199
000160 13 74 e0 3e 75 0b 91 be f5 fa 47 bd 04 34 94 3d
       0.43838558 -0.28329054 -0.048823316 0.07236484
000170 86 68 a1 3e eb 69 c9 bd b6 69 d6 bd 45 d2 0f bf
       0.31525058 -0.098346554 -0.104693815 -0.5618022
000180 ef a6 07 3d 72 d1 d0 3d 4a 9d b3 be e0 e2 7c 3d
       0.033118185 0.101961985 -0.3508094 0.061739802
000190 82 02 04 3f 7b 18 c2 3e e6 02 c0 be af ce fc 3e
       0.51566327 0.37909302 -0.3750221 0.49376437
0001a0 e4 3b 07 3c 9c 40 fa 3d 3d 0b a2 be d8 77 c1 3e
       0.008254025 0.122193545 -0.316492 0.37786746
0001b0 0f 01 84 be 22 c4 82 bd 32 1f 33 3e 8a 7b 8f bd
       -0.25782058 -0.063850656 0.17492369 -0.07005985
0001c0 b3 8b 09 be 7b f1 1d 3e 9d f9 44 bd 1f 0c 3b 3e
       -0.13432197 0.15424149 -0.048089612 0.18266343
0001d0 ab 14 06 3e 7a 14 b7 bc da 12 03 bf ba b8 ba 3e
       0.13093822 -0.022348631 -0.5120064 0.3646906
0001e0 43 d8 ad be f2 87 74 3e 5d 79 03 bd a1 b1 b5 bd
       -0.33954057 0.23879984 -0.032098163 -0.08871771
0001f0 7b 2b f6 bc 5a 91 1f be c7 c2 dc 3e ca 77 20 be
       -0.03005003 -0.15582791 0.43117353 -0.15670696
000200 e3 7b f5 bd c8 92 4c be ad 5d ed bc 15 93 da 3e
       -0.1198652 -0.19977868 -0.028975332 0.4269034
000210 0d 10 7c 3e 6c 89 54 be fb 04 00 bf 91 bd c5 3e
       0.24615498 -0.20755547 -0.500076 0.3862119
000220 c0 31 4c bd 7d f8 c9 be 93 db 81 bd f4 3d 8b 3d
       -0.049852133 -0.39447394 -0.063407086 0.06798926
000230 bd 71 b4 bd 19 15 df bc 64 ea a1 bd ab c2 f2 bd
       -0.08810756 -0.02723174 -0.079060346 -0.11853536
000240 62 d8 bd be e5 f2 c2 be 7f 5d 9f 3d 1f 0f 65 3d
       -0.3707915 -0.3807594 0.07781505 0.055922624
000250 6c 5c 22 be 63 9d d2 bd b5 cb 30 3f c2 54 7f 3d
       -0.15855569 -0.102839254 0.6906083 0.06233669
000260 04 e3 da be fc 96 9b bd 73 b8 bc 3e 22 5f 63 be
       -0.42751324 -0.07597157 0.36859474 -0.22204259
000270 ef 73 bb bc 4e 3c b5 bc 9d a1 cb bd dc c1 20 bf
       -0.02288243 -0.022123482 -0.09942935 -0.62795806
000280 f6 5d 00 be 5b e1 c1 be 3c 15 89 bd cb 07 d1 bc
       -0.12535843 -0.37867245 -0.06693503 -0.025516411
000290 f5 37 c7 be 73 e0 ba 3e cc 00 15 3d 84 10 04 bf
       -0.3890988 0.36499366 0.036377713 -0.515877
0002a0 c8 94 69 3e a2 24 57 be e4 54 db 3d ab 39 23 3f
       0.22810662 -0.21010068 0.10709551 0.6375987
0002b0 95 f7 aa bd bb 30 20 3f 61 cc a2 3d 28 1e f2 3e
       -0.08348004 0.62574357 0.079491384 0.47288632
0002c0 f4 ae b0 be d3 7f c1 3d bb 8b 04 3e a8 66 90 3e
       -0.3450848 0.09448209 0.12943928 0.2820332
0002d0 7a b3 41 bf 7e 93 79 bd 24 fb 57 3e b2 f2 0f 3e
       -0.75664485 -0.060931675 0.21091896 0.14057425
0002e0 76 87 03 be c4 92 fd 3e bd 78 12 3f c1 29 20 3f
       -0.12844643 0.49526036 0.5721548 0.6256371
0002f0 dc c0 da bd 64 26 48 be 41 e0 21 bf 8a 12 ed bd
       -0.10681316 -0.19545895 -0.6323281 -0.11575802
000300 27 58 e7 3e ec 4f 23 bf 4f 8e 82 3e 10 6a 81 be
       0.45184442 -0.63793826 0.25499198 -0.25276232
000310 23 e3 95 3e 52 80 15 3e 55 0f 7e 3d 90 c3 50 3e
       0.29274854 0.14599732 0.06202634 0.20387101
000320 d0 a0 b9 bc c1 ba fb 3d b9 98 4f bd 97 ab 04 3f
       -0.02265969 0.1229148 -0.050682757 0.51824325
000330 dc 56 da 3e 10 ba 93 3e 23 fa a7 3d f4 1f 42 be
       0.42644393 0.28852892 0.08202007 -0.18957502
000340 39 3a 33 bf ed 8f fb be 49 7b 6e be cc 44 72 be
       -0.70010716 -0.49133244 -0.23289217 -0.23659056
000350 a4 f7 76 3e dd 35 db be ff 6e 89 3e 50 49 54 3e
       0.24117905 -0.42814532 0.26842496 0.20731091
000360 8e 3f 8c 3e 72 8f 1b bf 6b f6 ba 3e 2a 5a 66 3e
       0.27392238 -0.60765755 0.36516127 0.22495332
000370 5a 84 20 bf 90 17 14 3f 99 13 2f be a9 60 a8 3e
       -0.6270195 0.57848454 -0.1709732 0.32886246
000380 78 c1 03 3f 76 51 e5 be 0f 53 79 3e 91 38 c4 3d
       0.51467085 -0.44788712 0.2434809 0.09581102
000390 65 e2 0c 3f be 6c 0b 3f c5 63 36 3f 2d 85 ba 3b
       0.5503295 0.544628 0.71245986 0.0056921453
0003a0 74 a9 2a bf 46 dc 1f be 18 12 24 3f 91 15 b8 3d
       -0.66664815 -0.15611371 0.6409011 0.089884885
0003b0 25 69 d9 be a1 7a b0 bd b9 29 d3 be 5c f9 c7 3c
       -0.4246303 -0.086171396 -0.4124277 0.024410896
0003c0 63 12 a1 3e 0a ba 8d be 00 cc be be a7 39 e5 3d
       0.3145934 -0.27681 -0.37265015 0.11192637
0003d0 0e 87 b4 3e 0d 90 af 3e 2a 80 8b be d8 10 51 3e
       0.3525929 0.3428959 -0.2724622 0.20416582
0003e0 40 51 13 bf e8 40 e2 bd 28 3a 0c bd a3 28 d8 3e
       -0.5754585 -0.11047536 -0.03423515 0.42218503
0003f0 20 b4 63 3d 1f db cf be 06 0c 7d be 07 8a ee bc
       0.055591702 -0.40596864 -0.24711618 -0.029118551

linear1.bias f4 [128]
000000 7f fd f2 bb a8 5d cf 3e 04 af b4 bd fb 88 9d bd
       -0.007415473 0.40501142 -0.08822444 -0.076921426
000010 46 31 a1 3d d6 55 09 3e f9 f5 a2 3e fd 23 0a 3f
       0.07870726 0.1341165 0.31828287 0.53961164
000020 27 f8 5d 3e fc 9d a0 bd 99 d3 f7 bd b4 6d 1e bd
       0.21676694 -0.07842633 -0.12100906 -0.03867884
000030 28 22 c1 3c f2 28 7a 3e 32 e4 5c 3e f6 99 d0 3c
       0.023575857 0.24429682 0.21571425 0.02546404
000040 a8 a8 47 3e 04 b5 0c 3e 35 18 8a bc a8 6c 95 3e
       0.19497931 0.13740927 -0.016857246 0.2918446
000050 97 bf 74 bd 30 b5 bc 3d ef fb 50 3e 76 db 93 bd
       -0.059753027 0.09214246 0.20408605 -0.07219593
000060 04 eb 5b 3d 5c 6a 98 bd 49 19 a9 3d f2 10 b5 bc
       0.053690925 -0.074421614 0.08256776 -0.022102807
000070 e7 2a 84 3e 19 35 b5 3e cc 6e 54 be 49 33 a6 3e
       0.25813982 0.35392073 -0.2074539 0.32461002
000080 90 92 3a be 1c 27 ef bc b6 d9 87 3e 60 45 80 3c
       -0.18219972 -0.029193453 0.26533288 0.01565808
000090 75 c1 26 3d 76 d9 b3 3e ba 2c a6 3d df 07 31 3e
       0.04071184 0.35126847 0.08114 0.17288159
0000a0 ef 42 09 be ac 43 71 be a5 83 b9 3e 52 18 ff bd
       -0.1340444 -0.23560971 0.3623325 -0.124558106
0000b0 3c 55 c4 3e 44 8f df 3d ca 35 21 be 23 76 8c be
       0.3834628 0.109159976 -0.15743175 -0.2743388
0000c0 cd 34 b0 3e b2 24 da bd 36 13 0c be 6a 7b d3 bd
       0.34415284 -0.1065153 -0.13679203 -0.10326274
0000d0 0a d4 7b be 9e 64 f7 3d ba a8 bb bd 39 a7 91 3e
       -0.24592605 0.12079738 -0.091630414 0.28447893
0000e0 42 1d f8 3e 59 4b 08 3d 40 28 1f be 3e ba a6 bc
       0.48459822 0.033274982 -0.15542698 -0.02035248
0000f0 7f ea f7 bb 4d b6 1d 3d 2b 88 91 3e e1 43 77 3e
       -0.007565796 0.038503934 0.284242 0.24146987
000100 79 a2 60 3e c5 c6 be 3d 57 54 08 be 3e cc a2 3d
       0.21936978 0.09315256 -0.13313423 0.07949112
000110 63 bd bd 3d 82 86 3c bd 77 7e cf 3e 8a a3 83 3e
       0.09264638 -0.046026714 0.40526173 0.25710708
000120 de 98 eb 3d 35 6e ac 3d e8 7a 96 3e 71 be e1 3d
       0.115037665 0.08419458 0.29390645 0.11022652
000130 d3 e9 0a 3d 1f 3e bb 3c 8a af c3 3d a8 a8 96 bd
       0.0339144 0.02285677 0.09554966 -0.073563874
000140 61 02 30 3e b2 ac 93 3e 2c fc 75 3e f7 ef 9a 3e
       0.17188407 0.28842694 0.24021977 0.30261204
000150 50 c1 30 bc 9d dc 72 3c bd c6 d2 3e db 34 e6 ba
       -0.010788277 0.014823106 0.4116725 -0.001756336
000160 74 a4 ac 3e 28 ba bb be c6 92 b4 3d 88 ef 8d bd
       0.33719218 -0.36665463 0.08817057 -0.069304526
000170 c5 a2 c9 3e 49 e2 84 bd e7 e1 74 3e 6a 50 3e 3e
       0.39381996 -0.06488473 0.239143 0.18585363
000180 86 b0 ab 3d f0 6c 8b 3e a7 ef 2e 3e 08 bc 02 be
       0.083832785 0.2723155 0.17083608 -0.1276704
000190 b4 8d 56 be 93 1c 15 3d 0a e2 c0 3b c5 03 74 3e
       -0.20952493 0.036404204 0.005886321 0.23829563
0001a0 30 fd f9 bd 39 a4 60 3e 3a 06 80 3e 31 bd 81 3c
       -0.12206495 0.21937646 0.2500475 0.015837284
0001b0 48 eb 18 be 1a 2e 2a bd dd 80 07 be 0c 87 7f 3e
       -0.14933503 -0.041547872 -0.13232751 0.2495386
0001c0 1f 17 75 bd 30 be 56 3e d8 05 1b be 37 58 1c 3d
       -0.059836503 0.20970988 -0.15138948 0.038170066
0001d0 ea 51 44 bd bc fb 83 be ba 47 ec 3d 6b 1c 33 bd
       -0.04792968 -0.25777996 0.11537118 -0.043728273
0001e0 ad 02 25 3e 9e 7c 97 3d f6 08 8c 3d 5e a2 79 bd
       0.16114302 0.07396816 0.06837647 -0.06094586
0001f0 d7 f1 3b 3e 9d 48 dd 3e 17 69 17 be 0f 4f f7 3e
       0.18353973 0.43219462 -0.14786182 0.48302504

linear2.weight f4 [65, 128]
000000 0c c6 65 be 76 c8 df 3d 64 f4 c0 bd e9 d5 16 3e
       -0.2243883 0.10926907 -0.09421614 0.14730038
000010 70 d4 1f be 13 85 be bc 13 e1 99 be 67 da 61 3e
       -0.15608382 -0.023256814 -0.3005453 0.2205597
000020 ca de aa be ae 59 74 3d ce ef 80 3e ba 0e c3 be
       -0.333731 0.059655838 0.25182956 -0.38097173
000030 92 25 bc be 03 1e 2d bd e9 ad 1c bf 38 f2 9d 3d
       -0.36747414 -0.04226495 -0.61202866 0.07712215
000040 d0 bf cf bd 0b 80 c7 3d 89 74 45 bd f0 41 e3 3d
       -0.10144007 0.09741219 -0.04820684 0.11096561
000050 e8 e9 b4 bd be 33 67 3e cf b2 3e 3d 9c 2b c1 3d
       -0.088336766 0.22578332 0.046557244 0.09432146
000060 73 40 6d 3e 82 4d 41 3d 3f 78 a6 be 52 98 45 3e
       0.23169117 0.047193058 -0.32513615 0.19296387
000070 cf 2e 82 be 83 50 2d be 12 68 91 3d da 8d 6c be
       -0.25426337 -0.16925244 0.07099928 -0.23100987
000080 08 bc 4e 3e ab bd 21 be 09 a8 f1 bb 69 f2 b8 3b
       0.20188916 -0.15795009 -0.0073747677 0.005644132
000090 f1 c7 5d 3e 47 6c 64 bd 3b 6e 15 bf 3f 50 09 3e
       0.21658303 -0.055767324 -0.58371323 0.13409518
0000a0 60 60 17 be c3 b5 84 be 76 71 74 be f8 1e 57 be
       -0.14782858 -0.25919923 -0.23871407 -0.21007907
0000b0 ce 2c ff 3e 11 1b 0c bd dd e9 13 be 48 4d ea 3d
       0.4983887 -0.0342055 -0.1444468 0.114405215
0000c0 6a fe f7 3e 20 45 e2 3d 30 a2 7d be 5e 06 9f bd
       0.4843629 0.11048341 -0.24768901 -0.07764886
0000d0 05 66 01 3e a0 96 b7 bd 82 be fa bd 24 dc 06 3e
       0.12636574 -0.08964276 -0.12243368 0.13169914
0000e0 a2 2b c7 3d 68 37 d9 3d 70 2b 1a bc f7 03 03 3e
       0.09725119 0.10606271 -0.00940977 0.12794481
0000f0 c8 d4 81 3e 2b 43 ad be 94 92 0d 3e b0 0a e3 bd
       0.25357652 -0.33840308 0.13825446 -0.11086023
000100 42 ce a3 3b 36 80 a8 be 8a 33 94 3d ba 66 4b 3d
       0.004998953 -0.32910317 0.07236393 0.049658515
000110 33 9d 6a be 01 d3 90 3c 9a 3c 87 bd b3 e8 5d 3e
       -0.22911529 0.01767874 -0.06603356 0.21670799
000120 65 64 0c 3d 0b 33 0b 3f 37 1e 69 3c 5a 75 ef 3d
       0.03427543 0.5437476 0.014228395 0.11692305
000130 9b 5d 13 be c9 9a 86 3e a0 fc 35 be 5f 59 8a 3e
       -0.14391176 0.26289967 -0.1777215 0.2702131
000140 a8 37 22 be fc 77 f3 bd df 8e 6b 3e 44 57 f9 3d
       -0.15841544 -0.118881196 0.2300372 0.12174848
000150 b5 03 e4 be 3a 0f 86 3d ca e5 e2 bd 35 a9 83 3d
       -0.44534078 0.06545873 -0.11078985 0.06428758
000160 e9 ab 09 3b 7a b4 40 3e 21 65 15 bd 80 aa 8c be
       0.0021007007 0.18818846 -0.036473397 -0.2747383
000170 e5 4c 4e bd 50 14 12 bd e5 c0 7a be 20 9c ab 3e
       -0.0503663 -0.035663903 -0.24487646 0.3351755
000180 56 95 a2 bd ca 69 0d bd 94 48 ba bc d7 fd 13 be
       -0.0793864 -0.034524716 -0.022739686 -0.14452301
000190 d1 0a 87 3d e8 20 c4 3e f6 41 1d be 6f 5e 87 be
       0.0659386 0.38306355 -0.15357193 -0.26439235
0001a0 27 4b ae bc 84 66 76 3e 8d c2 1b be f6 f2 7d 3e
       -0.02127607 0.24062544 -0.15210934 0.24799713
0001b0 ba 9d 05 3f 87 32 a5 bd e4 3f bb be 84 34 32 bd
       0.52193797 -0.08066278 -0.36572182 -0.043507114
0001c0 d0 a6 02 3e a6 91 7a be 65 4c 23 3f 75 7e 37 bd
       0.12758946 -0.24469623 0.63788444 -0.044798333
0001d0 38 10 95 be ad 4c c3 bd fb 20 e1 be b2 13 0b be
       -0.29113936 -0.09536109 -0.43970475 -0.13581732
0001e0 0e 1c 31 be 34 55 be 3d 77 aa 5b 3d f6 fa 85 3e
       -0.17295858 0.09293595 0.053629365 0.2616803
0001f0 ff 35 c4 bb cf a1 5b 3e 65 ff 9e 3e 87 3b 8f 3c
       -0.005987882 0.21448444 0.31054226 0.01748444
000200 74 62 e5 bd 9b ca 06 3e 75 61 47 bd 38 c8 ec bc
       -0.11200419 0.13163225 -0.048676927 -0.028904065
000210 46 e9 b9 3d e1 86 8d bd 2d 6d bb be 25 e3 0e 3f
       0.090776965 -0.06910492 -0.36606732 0.55815345
000220 51 f4 62 be fe 3d c1 3d d4 02 ab be a1 16 d5 be
       -0.22163512 0.09435652 -0.33400595 -0.41618827
000230 14 da 10 be ae d6 1f 3f ba 42 08 3f f0 0c c9 3d
       -0.1414569 0.6243695 0.53226817 0.09816921
000240 0d e7 01 3e 7d 01 8f 3d c3 8d 4f be 11 a2 a7 be
       0.12685795 0.06982706 -0.20268922 -0.32740834
000250 1f de 02 be 1a 12 98 be 66 23 87 be de 40 e0 bd
       -0.12780045 -0.2970131 -0.26394194 -0.109498724
000260 ed b9 65 be 4c c9 dd 3e dc 88 99 3e f1 2c a2 3d
       -0.22434206 0.4331764 0.29987228 0.07918728
000270 46 65 27 be 9d dd fa bc 0b 4c 88 be 06 d2 17 3e
       -0.16347227 -0.030623252 -0.26620516 0.14826211
000280 1e b2 92 bd 9f 6d 92 bd fb c5 f8 bd e2 81 9d 3d
       -0.071628794 -0.07149815 -0.12147137 0.07690789
000290 13 cd 8b be 31 bf 48 3e 09 e5 07 3d a3 ab 4e be
       -0.27304897 0.19604184 0.03317741 -0.20182662
0002a0 64 4b 55 be a8 2f b3 3c 1e e9 8d bd 8b d9 48 bb
       -0.2082954 0.02187331 -0.06929229 -0.0030647244
0002b0 2f b5 78 3d 31 48 87 be 18 d5 ab 3d f8 f3 76 be
       0.060719665 -0.26422265 0.08390254 -0.24116504
0002c0 91 ec 93 be 4f 44 91 3d 9d e7 30 be 42 72 45 be
       -0.28891423 0.07093107 -0.17275853 -0.19281867
0002d0 9c 72 34 3e d4 11 6f be 4f 46 0f 3d 04 74 bc be
       0.17621845 -0.23346645 0.03497916 -0.36807263
0002e0 fa e2 de 3e 91 d9 26 be 29 ad 19 bd 79 47 b8 be
       0.43532544 -0.16293932 -0.037518654 -0.3599203
0002f0 8a b4 2f be c1 e8 95 3d f3 a5 06 3d 36 0f 32 3e
       -0.17158714 0.07319785 0.032873105 0.17388615
000300 21 44 73 be 7e 64 1b bd 0a 80 97 3d 23 d6 67 3e
       -0.23756458 -0.037937634 0.073974684 0.2264028
000310 b6 df 13 3c f3 23 85 3d f2 54 43 3e ed 71 6e be
       0.009025505 0.065009974 0.19075373 -0.23285647
000320 ab bf 85 3e e9 4d f8 bb d0 3c b7 3d 20 97 10 bd
       0.26122794 -0.007577647 0.08947146 -0.035300374
000330 8c f8 61 be 89 58 99 bd 0f 15 30 be de b7 af be
       -0.2206747 -0.0748759 -0.17195533 -0.34319967
000340 49 1c 3a 3e 40 61 ad 3e c1 37 5a be 6d a7 74 3e
       0.18174852 0.33863258 -0.21310331 0.23891993
000350 7d 4e 9f be 24 23 c4 3c 27 b0 57 3e 92 2a 81 be
       -0.3111457 0.023942538 0.2106329 -0.2522779
000360 e0 9d 32 3e c4 76 3b 3e aa 06 64 3e 27 8c 8b 3e
       0.17443037 0.18307024 0.22268167 0.27255365
000370 7c 4c ba 3d 69 ea 89 bd fe 9d 57 3e 72 5f 0d 3e
       0.090966195 -0.06734163 0.21056363 0.13805941
000380 cf 87 0b 3e 65 de fc bd 18 d6 15 3e 79 8c 64 3e
       0.13626026 -0.12347106 0.14632452 0.22319211
000390 cb ba 1f bd c8 26 ab 3d fa 9e 93 be c9 17 ef bc
       -0.0389965 0.08357006 -0.28832227 -0.029186146
0003a0 e7 8e 1e bd f3 55 9b 3e fe 1e 1c 3e 12 49 36 be
       -0.0387105 0.30339012 0.15246198 -0.17801312
0003b0 d7 cf 9a 3d 77 1b 55 3e 5f f7 59 3e c9 6b 8b 3d
       0.075591736 0.20811258 0.21285771 0.06807668
0003c0 bc 3d 6d bd 90 62 49 be c0 79 60 be b0 74 13 3e
       -0.057920203 -0.19666505 -0.21921444 0.14399981
0003d0 70 ae 83 3e 77 21 61 be bd 16 e0 bd 6f d9 43 3e
       0.25719023 -0.21985422 -0.10941837 0.19125913
0003e0 f6 73 85 3e 23 a9 aa bd 74 3b eb be c2 59 f1 3e
       0.26065034 -0.083330415 -0.45943797 0.47138792
0003f0 43 39 c1 3e bb 17 93 3d a1 88 e6 bc 2c 04 02 3e
       0.37739 0.071822606 -0.028141322 0.12696904

linear2.bias f4 [65]
000000 12 e4 42 be ff 5b 7e 3d 58 87 d6 bc 5c fa d5 3d
       -0.19032314 0.062099453 -0.026187584 0.10448143
000010 05 ff bd bc 35 65 73 bc 40 c7 b9 3a e3 30 a6 bd
       -0.023192892 -0.014855673 0.0014173761 -0.08114793
000020 23 fd b5 bc eb 30 05 be 5e 25 a6 3d 6a 95 b9 3d
       -0.022215432 -0.13006942 0.08112596 0.090617016
000030 eb b7 b9 3c f0 04 12 bc 6d 02 98 3d 70 26 07 3d
       0.022670707 -0.00891231 0.07422338 0.03299564
000040 ea 7b 90 3c 8c 56 76 bd b6 a6 40 3d cb 65 a0 bb
       0.017637212 -0.06014113 0.047033988 -0.004894947
000050 03 d2 73 3c 12 c1 cb bb 97 43 60 3d 91 62 b3 3d
       0.014881614 -0.006218084 0.05475196 0.087590344
000060 fc 87 b3 3d cf 00 d1 3a d6 70 20 3e 1a 70 9a 3d
       0.08766171 0.0015945676 0.15668043 0.07540913
000070 73 d9 b4 3c ec 7a 11 bd 45 46 91 3d cb 8b 0e 3d
       0.022076344 -0.035517618 0.07093481 0.034801286
000080 a4 23 1c bd 16 3e cb bd dc 88 42 3d 16 71 18 bd
       -0.038119927 -0.09923951 0.0474938 -0.037217222
000090 75 25 91 3d 2d 99 7e bd aa f6 b2 3c 89 b6 56 3e
       0.070872225 -0.0621578 0.021846134 0.20968069
0000a0 93 b1 d3 bd a3 84 28 bd 3e 2b 5e be d9 1c 44 3e
       -0.10336604 -0.041142117 -0.21696183 0.1915163
0000b0 ad 54 00 bd b3 07 cd 3d 9a e0 c1 bc ac c7 3c 3d
       -0.031330753 0.10011234 -0.023666669 0.04608886
0000c0 cb 51 45 bd 0b 04 14 bd ab 33 5f bd 9f fa 85 bd
       -0.048173707 -0.03613667 -0.054492634 -0.06541943
0000d0 5e 39 e9 bc b0 01 fb bb 98 d6 12 3d c8 ea 13 be
       -0.028469738 -0.0076601133 0.035849184 -0.1444503
0000e0 ea 57 39 bd 39 87 3f be c5 13 34 3e bb a9 04 bc
       -0.045249857 -0.18703927 0.17585666 -0.0080971075
0000f0 ce 3f f2 bc f5 85 1b be e1 e9 bf bd 2b 44 7b 3d
       -0.02957144 -0.1518782 -0.09370781 0.061344307
000100 1a e5 42 3b
       0.0029738606
