data/pretrained_embeddings/kmer3_len100_epoch5_cbow_model.pt (torch_old, 112287 bytes, 5 tensors)

embeddings.weight f4 [65, 100]
-0.6455449 0.010095172 0.027919598 0.9349004 -0.12868255 0.18707156 1.4456123 -1.7648007
-1.1914009 3.245801 -0.09710043 -0.39746353 -0.51061654 -1.6735762 1.1773223 -0.36743617
-0.28608695 0.42669836 -1.2157468 -0.781428 0.98664045 -2.089081 0.29556444 -0.752813
-1.6206098 -1.0061535 -0.07358452 -2.300444 0.13801032 -1.2553042 -0.34180167 -0.7358836
-0.16691886 -0.60669357 1.3592882 -0.43268096 -0.3731652 -0.14716594 -0.2586272 -0.75861853
0.04936632 -0.7646447 0.9202379 -0.53828263 1.1887206 -1.9192077 -0.42123282 -1.4249378
-1.1005027 0.091357425 -0.38185403 -0.34094182 1.4096764 0.6467294 0.1271123 0.6797548
1.4195002 -0.02119933 -0.20363583 -0.7875721 0.8214267 1.01124 -1.9445212 1.1749438
1.1751374 0.55807835 -0.5805374 -0.7249401 0.66409934 0.7859069 0.5431984 0.01942387
0.38606995 -0.21017338 -0.24359867 -0.6351386 -0.039051976 0.2730407 0.97325873 0.959341
0.48304883 1.5261226 -0.5983302 0.03457948 -1.1431708 -1.4739424 0.38924214 -2.183788
0.11740306 -0.7406177 0.073886536 1.7028006 -0.059630286 0.57996416 -1.0572109 -0.8668852
0.33932787 -0.4590402 1.9734037 0.23925084 1.4907721 -0.3267378 1.375727 -0.5528482
-0.53355706 -0.5446688 -0.8000916 -0.11275885 -0.44075722 -1.1680502 1.5337718 0.3159203
0.5147908 0.58024704 1.3051491 0.0020274045 1.239232 -0.48788708 -0.016146816 0.43151477
1.6589079 -0.8708423 -0.08851392 0.053613644 2.0346632 -0.018377453 -1.6902328 -0.5672297
1.1057833 0.0896471 -0.14345136 0.77590686 1.3817081 0.63443923 0.27305096 0.8897433
0.8277239 1.2478725 0.80482364 -0.31757125 2.8972883 -0.19858755 -0.09160474 -1.664262
1.5394927 -0.6489266 -0.029127808 0.85955346 1.1254557 0.02717776 -1.8255647 -0.83661777
1.3139462 -0.326142 -1.3380101 -1.653478 -0.5718973 -1.7042153 0.19195272 -1.5898473
-1.7382025 -0.83584946 -0.6738767 0.4644181 0.9846662 0.36292768 -0.5035708 -1.0414394
0.8598791 0.9762403 -0.16560549 -0.5407261 0.7220933 -1.1260552 2.112253 -0.4236663
-0.3109128 0.000181915 -0.86005265 0.7351317 -0.14271794 2.2158725 0.467432 2.3981411
-0.9991354 -0.41101304 -0.7502764 1.0027696 0.50580615 -0.5925353 0.4518103 -0.31802157
-0.105572596 -1.0011348 0.5891643 -0.18455504 0.43394458 -0.011470993 -0.21462098 0.40420532
0.014716029 -0.7612972 0.52717054 -0.34108025 -1.0069575 0.19536813 0.06422908 0.9677723
-0.71489924 -1.4203371 -0.3615782 -1.1192428 0.10420991 -0.4746843 -1.1931146 -0.7859492
-0.037457343 -0.35301846 0.8704395 -1.2540317 -0.08558635 -0.112671904 -0.98238236 -0.08808421
0.12092025 0.5403129 1.7704152 -0.17208713 0.93094957 -0.78929317 0.47500265 0.20144434
-0.54605424 0.9038399 -2.600775 -0.5220221 -0.53796476 -1.2773006 -0.3232568 0.36925507
0.3097076 -0.5848946 0.754152 -0.970227 1.4899379 0.15172864 0.98949474 -0.055226278
0.7840257 -0.892375 1.0222911 -1.2495245 -0.8640886 -1.365496 -0.6079861 0.6740679
00000000: 6e42 25bf 3866 253c a4b7 e43c a255 6f3f
00000010: 5cc5 03be b08f 3f3e d309 b93f fde4 e1bf
00000020: d37f 98bf 34bb 4f40 97dc c6bd 5780 cbbe
00000030: c4b7 02bf bf37 d6bf 7fb2 963f 9820 bcbe
00000040: fd79 92be 3578 da3e 979d 9bbf aa0b 48bf
00000050: 7894 7c3f 81b3 05c0 3954 973e 5ab8 40bf
00000060: 2470 cfbf a3c9 80bf 7bb3 96bd 793a 13c0
00000070: 9452 0d3e cfad a0bf a100 afbe de62 3cbf
00000080: c7ec 2abe 4550 1bbf 28fd ad3f 5c88 ddbe
00000090: 820f bfbe abb2 16be c96a 84be d334 42bf
000000a0: 5734 4a3d c1bf 43bf b694 6b3f e4cc 09bf
000000b0: ff27 983f 99a8 f5bf d4ab d7be 5d64 b6bf
000000c0: 46dd 8cbf 9a19 bb3d 5f82 c3be ed8f aebe
000000d0: 4770 b43f 0f90 253f ba29 023e 6904 2e3f
000000e0: 2fb2 b53f 38aa adbc e985 50be 539e 49bf
000000f0: 0549 523f 5070 813f 12e6 f8bf 8f64 963f
00000100: e76a 963f 39de 0e3f 199e 14bf ad95 39bf
00000110: 6a02 2a3f 3231 493f 0d0f 0b3f cf1e 9f3c
00000120: f6aa c53e b137 57be ee71 79be 7198 22bf
00000130: f7f4 1fbd fecb 8b3e 7c27 793f 5f97 753f
00000140: 2d52 f73e fc57 c33f 2b2c 19bf 36a3 0d3d
00000150: 6c53 92bf 25aa bcbf bf4a c73e 2fc3 0bc0
00000160: 0471 f03d 1f99 3dbf d351 973d 5ff5 d93f
00000170: e33e 74bd 8878 143f b052 87bf 30ec 5dbf
00000180: 62bc ad3e 5107 ebbe 7e98 fc3f 2cfe 743e
00000190: 9fd1 be3f 2d4a a7be d317 b03f 7687 0dbf
000001a0: 3297 08bf 6a6f 0bbf ced2 4cbf 1dee e6bd
000001b0: eeaa e1be ab82 95bf a252 c43f 4ec0 a13e
000001c0: 54c9 033f 128b 143f 200f a73f 34de 043b
000001d0: 279f 9e3f 56cc f9be 5446 84bc 81ef dc3e
000001e0: 1857 d43f 85ef 5ebf c946 b5bd fb99 5b3d
000001f0: ec37 0240 508c 96bc 8c59 d8bf f735 11bf
00000200: 4f8a 8d3f e698 b73d eae4 12be d5a1 463f
00000210: d0db b03f 9c6a 223f 56cd 8b3e 38c6 633f
00000220: b7e5 533f 49ba 9f3f ec08 4e3f b398 a2be
00000230: 2c6d 3940 895a 4bbe 449b bbbd 8a06 d5bf
00000240: 190e c53f 0e20 26bf 719d eebc b20b 5c3f
00000250: ef0e 903f e5a3 de3c 1bac e9bf 952c 56bf
00000260: 642f a83f 16fc a6be ea43 abbf 2ba5 d3bf
00000270: dd67 12bf ba23 dabf 418f 443e 1e80 cbbf
00000280: 6b7d debf 3bfa 55bf 2f83 2cbf 36c8 ed3e
00000290: 1613 7c3f a8d1 b93e 04ea 00bf e34d 85bf
000002a0: 0921 5c3f e2ea 793f 7c94 29be 076d 0abf
000002b0: 1bdb 383f 9422 90bf 272f 0740 caea d8be
000002c0: f62f 9fbe 70c0 3e39 692c 5cbf 9731 3c3f
000002d0: a724 12be dbd0 0d40 3f53 ef3e 257b 1940
000002e0: 56c7 7fbf 4d70 d2be 1d12 40bf c15a 803f
000002f0: 837c 013f 65b0 17bf ae53 e73e b9d3 a2be
00000300: 7236 d8bd 2f25 80bf 79d3 163f fffb 3cbe
00000310: fc2d de3e d5f0 3bbc 9ac5 5bbe 00f4 ce3e
00000320: 801b 713c 60e4 42bf a6f4 063f 12a2 aebe
00000330: fce3 80bf 950e 483e 898a 833d edbf 773f
00000340: a303 37bf 9bcd b5bf c720 b9be 5943 8fbf
00000350: 016c d53d d209 f3be fbb7 98bf f733 49bf
00000360: df6c 19bd d6be b4be 20d5 5e3f 1c84 a0bf
00000370: e547 afbd 87c0 e6bd 697d 7bbf 7f65 b4bd
00000380: 09a5 f73d f251 0a3f f79c e23f 9c37 30be
00000390: b652 6e3f 1e0f 4abf 8c33 f33e 6d47 4e3e
000003a0: 36ca 0bbf 0d62 673f 1973 26c0 3ea3 05bf
000003b0: 0fb8 09bf 967e a3bf ea81 a5be 000f bd3e
000003c0: ff91 9e3e a7bb 15bf 1b10 413f cc60 78bf
000003d0: 49b6 be3f c15e 1b3e 874f 7d3f f334 62bd
000003e0: e9b5 483f b072 64bf 6fda 823f 6bf0 9fbf
000003f0: e934 5dbf 93c8 aebf faa4 1bbf b78f 2c3f

linear1.weight f4 [128, 100]
0.061379746 -0.034454405 -0.010000487 -0.058971576 -0.097967826 0.090392075 0.005160843 0.17416911
-0.002928366 0.014639344 -0.05039184 0.033413924 -0.064219564 0.17069969 -0.16349946 -0.051227752
0.14479204 0.13427861 -0.056795374 0.014044035 0.11397805 0.043263618 -0.17661327 -0.14632219
0.18537982 0.0053173085 0.117798574 0.054922935 -0.04587109 0.019258456 -0.022908462 -0.09712334
0.06978352 0.07296637 0.15227056 0.06334507 -0.006311308 -0.1041398 0.17362587 0.11609663
-0.07169821 -0.0055669397 0.020324346 0.042315487 -0.18246305 -0.20885396 -0.07136173 0.11436747
0.14916146 0.16882132 0.0053956644 0.10880774 -0.108141944 0.053471923 0.074646324 -0.0427371
0.031389855 0.050122924 0.25575998 -0.016745659 0.028509473 -0.101039276 0.101260595 0.12758557
-0.05073601 0.039440908 0.025720328 0.026816258 -0.03769899 0.20383865 -0.04958512 -0.104697354
0.109632105 -0.04559444 0.057429336 0.051835723 -0.011397408 -0.06739497 0.28141394 -0.08554703
0.011674641 0.050832752 -0.15754856 -0.09669377 0.11081136 -0.07447815 0.14434864 -0.047167026
0.065901645 0.27873936 -0.00077561714 0.052005533 -0.08118116 -0.10703389 -0.12467641 0.26706034
0.011160139 0.024524804 -0.064783886 -0.092142805 0.07193382 0.031260666 0.13843432 -0.0882843
-0.17606564 -0.10234885 0.11596777 0.10104088 0.0056511858 0.06353012 0.2978066 -0.016251517
0.10834254 0.11950717 0.028262734 -0.053133126 0.24254398 0.038508967 0.2572918 0.14414306
-0.029221315 0.070060536 -0.07834557 0.09210922 0.020236718 0.1790826 0.08438505 -0.10363448
0.32742432 0.0061474238 -0.075798824 0.26096794 0.12798245 -0.04511384 -0.28276008 -0.0057306704
-0.07948678 0.080295175 0.13667613 0.1577678 -0.2390109 0.032157328 -0.14850475 0.026066521
-0.24133867 -0.15280719 -0.16654582 0.08895274 0.0014329082 -0.090507284 0.094879396 -0.0054567605
-0.20406152 0.28803238 -0.05539701 0.24023314 -0.07579486 -0.06702102 -0.13807525 0.10040023
0.14350145 -0.007535753 0.19484721 -0.02373541 0.2410666 -0.10761841 0.18282643 0.04963881
-0.070750445 0.08390584 -0.020310529 0.0875753 -0.2894197 0.015916493 0.16136846 -0.06985296
-0.07749955 0.14616092 -0.04575141 -0.29634395 -0.055238653 -0.13195175 -0.15122591 -0.010997916
-0.01974466 0.056822885 0.29284912 0.0038623507 -0.17788976 -0.022768676 -0.11331867 -0.2031542
0.008498323 -0.11209369 -0.017604914 -0.03746103 -0.042056788 -0.08470271 0.02882497 0.12067722
-0.18214461 -0.0033415533 -0.016666973 -0.14123954 0.13322458 -0.084967665 -0.18520012 -0.045349102
-0.23560937 0.08578878 -0.22725324 0.11688632 -0.15906928 0.17339464 0.20913237 -0.05596173
0.10859141 0.22262554 0.066622145 -0.11346483 0.080732755 -0.033937458 0.11676159 0.022521479
-0.15728325 -0.032298982 -0.14384969 -0.16602807 -0.037722975 0.09250835 0.105394326 -0.009040448
0.099721976 -0.047882006 0.00031635235 -0.057977192 -0.02314 -0.07478978 -0.046692144 0.023892954
-0.1452708 0.17147328 0.09222075 0.08570154 0.07945017 -0.00021026937 -0.07831924 -0.007037272
-0.20007911 -0.13638854 -0.03005762 0.09774526 -0.008022409 -0.04888927 -0.2312316 0.18010803
00000000: 5469 7b3d 1020 0dbd 15d9 23bc 2e8c 71bd
00000010: 5ba3 c8bd 7b1f b93d 4a1c a93b 6359 323e
00000020: d4e9 3fbb dcd9 6f3c ad67 4ebd 0add 083d
00000030: 8c85 83bd e6cb 2e3e 676c 27be 31d4 51bd
00000040: 5d44 143e 5580 093e 44a2 68bd f418 663c
00000050: 536d e93d 3135 313d 1cda 34be 7cd5 15be
00000060: 35d4 3d3e d13c ae3b 6140 f13d dff6 603d
00000070: 53e3 3bbd e9c3 9d3c 87aa bbbc 9ae8 c6bd
00000080: aaea 8e3d 646f 953d d0ec 1b3e 0fbb 813d
00000090: 17cf cebb 3f47 d5bd fbca 313e 12c4 ed3d
000000a0: 83d6 92bd e06a b6bb 3e7f a63c 0153 2d3d
000000b0: 98d7 3abe d0dd 55be 1926 92bd 7e39 ea3d
000000c0: c8bd 183e 7fdf 2c3e 1dce b03b 98d6 de3d
000000d0: 8679 ddbd 6005 5b3d 2ce0 983d 190d 2fbd
000000e0: a692 003d b24d 4d3d f9f2 823e 312e 89bc
000000f0: b38c e93c aeed cebd b761 cf3d cba5 023e
00000100: 90d0 4fbd ca8c 213d 70b3 d23c c5ad db3c
00000110: 426a 1abd 14bb 503e c419 4bbd 916b d6bd
00000120: cc86 e03d 3cc1 3abd 063b 6b3d b251 543d
00000130: 32bc 3abc 6006 8abd 7d15 903e 4833 afbd
00000140: fe46 3f3c 0136 503d 6954 21be 6207 c6bd
00000150: 11f1 e23d 0088 98bd 21d0 133e 3632 41bd
00000160: 71f7 863d edb6 8e3e c952 4bba c103 553d
00000170: 4f42 a6bd 9634 dbbd 5856 ffbd 22bc 883e
00000180: 04d9 363c 3ee8 c83c 6aad 84bd 5eb5 bcbd
00000190: 0a52 933d 2f0b 003d bac1 0d3e 66ce b4bd
000001a0: 8d4a 34be 469c d1bd 8380 ed3d 85ee ce3d
000001b0: 952d b93b 141c 823d 1b7a 983e e721 85bc
000001c0: b2e2 dd3d 2dc0 f43d 4087 e73c 1fa2 59bd
000001d0: 735d 783e 94bb 1d3d c0bb 833e 3d9a 133e
000001e0: 8a61 efbc e67b 8f3d a473 a0bd c2a3 bc3d
000001f0: 79c7 a53c 6e61 373e 12d2 ac3d 503e d4bd
00000200: 29a4 a73e 5470 c93b 6a3c 9bbd 979d 853e
00000210: d50d 033e 4ac9 38bd eec5 90be 59c8 bbbb
00000220: f7c9 a2bd cc71 a43d d4f4 0b3e e28d 213e
00000230: 46bf 74be 67b7 033d a111 18be 7589 d53c
00000240: 7c21 77be 7d79 1cbe fd8a 2abe db2c b63d
00000250: 6cd0 bb3a e25b b9bd 2150 c23d a0ce b2bb
00000260: 81f5 50be fb78 933e fae7 62bd adff 753e
00000270: 563a 9bbd 5142 89bd 9963 0dbe a39e cd3d
00000280: 0bf2 123e 7aee f6bb 0786 473e c370 c2bc
00000290: 2ada 763e 0a67 dcbd da36 3b3e 1152 4b3d
000002a0: 9ce5 90bd d3d6 ab3d 4462 a6bc ae5a b33d
000002b0: d22e 94be 4e63 823c c63d 253e 120f 8fbd
000002c0: 16b8 9ebd 35ab 153e d565 3bbd 65ba 97be
000002d0: ed41 62bd 5c1e 07be f7da 1abe 9a30 34bc
000002e0: 8ebf a1bc 1dbf 683d 52f0 953e 7e1f 7d3b
000002f0: bc28 36be 6085 babc 9e13 e8bd a807 50be
00000300: 8d3c 0b3c 6091 e5bd 2e38 90bc bd70 19bd
00000310: bd43 2cbd 9d78 adbd 5822 ec3c 9e25 f73d
00000320: 1e84 3abe f6fd 5abb 2d89 88bc 19a1 10be
00000330: 066c 083e 8703 aebd 1aa5 3dbe fbbf 39bd
00000340: 9543 71be 07b2 af3d 13b5 68be 1862 ef3d
00000350: 0fe3 22be 5d8e 313e cc26 563e 2138 65bd
00000360: 2c65 de3d f3f7 633e 3171 883d 4060 e8bd
00000370: 3757 a53d 0102 0bbd b320 ef3d f77e b83c
00000380: dc0e 21be f04b 04bd 554d 13be 4303 2abe
00000390: 6883 1abd 0575 bd3d fbd8 d73d 631e 14bc
000003a0: 093b cc3d ec1f 44bd 18dc a539 7e79 6dbd
000003b0: 1990 bdbc 622b 99bd 4340 3fbd 28bb c33c
000003c0: dec1 14be b196 2f3e 3cde bc3d 4a84 af3d
000003d0: c5b6 a23d c17b 5cb9 d665 a0bd eb98 e6bb
000003e0: 8ae1 4cbe 70a9 0bbe 663b f6bc ab2e c83d
000003f0: 6c70 03bc 1d40 48bd fac7 6cbe 3d6e 383e

linear1.bias f4 [128]
0.04012729 0.10605514 0.044009075 0.10823407 0.050637756 0.12323359 0.11325049 -0.08638084
0.015764287 0.024507377 -0.08315227 0.107706554 0.03829702 0.066864304 -0.03613877 -0.039490145
-0.047083274 -0.016351338 0.012394838 0.02104191 0.029265678 0.06085246 -0.073120356 0.11325324
-0.006295167 0.08767992 0.13003457 -0.054498557 -0.029051557 0.060131725 -0.013947345 0.07708915
0.11335077 -0.049542367 0.16009589 -0.0013122924 0.09104272 0.02908448 -0.059123036 -0.01354384
0.10422218 0.0019523476 -0.012716659 -0.02872051 -0.0067917053 0.041299712 0.072098576 0.11883122
0.03418748 -0.02347914 0.0037807766 0.042070303 -0.0064485734 0.009452051 0.04238464 0.08535112
0.08999732 -0.06205651 -0.004679823 -0.049953874 -0.009620579 0.06880402 -0.0020964346 -0.0004480156
-0.01080512 0.072594315 0.0040350095 -0.015250109 0.11218889 -0.08645672 -0.038965363 0.029720858
-0.012365363 0.06507142 -0.02917172 0.07520057 -0.019214598 -0.042593956 0.1137924 0.07191315
-0.012583195 0.061863568 -0.038876984 -0.028318072 0.026523551 -0.08806847 0.025771605 0.06437897
-0.05562245 0.116713606 0.026533987 -0.04749024 0.0815564 0.12678568 0.010061184 0.10686196
0.064646445 0.068502694 0.034826826 -0.0095133055 0.09539302 0.11827361 -0.019063698 -0.011418822
-0.019105943 0.10192666 -0.024010178 0.029815665 0.01991014 0.046467368 0.04749551 -0.09199314
0.07190646 0.045777295 -0.01509077 0.051435787 0.0297707 0.0040769684 -0.04856321 0.06375225
-0.020200072 0.003094451 0.05915043 -0.11028148 0.0060314247 0.015599976 0.047446825 0.08834041
00000000: 835c 243d 7033 d93d dc42 343d d3a9 dd3d
00000010: 8969 4f3d e461 fc3d dfef e73d 70e8 b0bd
00000020: 1b24 813c b2c3 c83c bd4b aabd 4195 dc3d
00000030: 56dd 1c3d 27f0 883d 3f06 14bd 6bc0 21bd
00000040: 64da 40bd 3ef3 85bc b813 4b3c 1560 ac3c
00000050: 93be ef3c 6e40 793d 20c0 95bd 51f1 e73d
00000060: b047 cebb 8891 b33d c827 053e e139 5fbd
00000070: 88fd edbc af4c 763d 6883 64bc ebe0 9d3d
00000080: 7324 e83d f0ec 4abd 2df0 233e 3a01 acba
00000090: 9b74 ba3d 9342 ee3c ff2a 72bd fbe6 5dbc
000000a0: 7072 d53d eae5 ff3a 8959 50bc 4647 ebbc
000000b0: f48c debb e329 293d 6ba8 933d c85d f33d
000000c0: 2c08 0c3d 5357 c0bc e8c6 773b e951 2c3d
000000d0: 8e4e d3bb c6dc 1a3c 849b 2d3d 91cc ae3d
000000e0: 8450 b83d f82e 7ebd 3359 99bb 6f9c 4cbd
000000f0: a29f 1dbc 1fe9 8c3d 5664 09bb a3e3 eab9
00000100: f507 31bc 54ac 943d 1d38 843b 98db 79bc
00000110: 4ac3 e53d 3910 b1bd 259a 1fbd 2879 f33c
00000120: 1798 4abc 2a44 853d 88f9 eebc c202 9a3d
00000130: ef67 9dbc 0077 2ebd fd0b e93d 3447 933d
00000140: bf29 4ebc a764 7d3d 793d 1fbd 4dfb e7bc
00000150: eb47 d93c 3e5d b4bd f91e d33c 1fd9 833d
00000160: 5ed4 63bd 8b07 ef3d ce5d d93c 2085 42bd
00000170: 0b07 a73d 1bd4 013e aad7 243c 71da da3d
00000180: 5b65 843d 244b 8c3d 93a6 0e3d b2dd 1bbc
00000190: 6a5d c33d 6f39 f23d 792b 9cbc 0316 3bbc
000001a0: 1184 9cbc edbe d03d feb0 c4bc fb3f f43c
000001b0: 971a a33c 9154 3e3d a78a 423d e666 bcbd
000001c0: b243 933d f980 3b3d 473f 77bc 55ae 523d
000001d0: afe1 f33c 1798 853b 37ea 46bd 8a90 823d
000001e0: 9f7a a5bc 46cc 4a3b b947 723d 42db e1bd
000001f0: 42a3 c53b 0b97 7f3c 9a57 423d d1eb b43d

linear2.weight f4 [65, 128]
0.11518012 0.24185121 0.009686817 -0.11882167 0.31479275 0.014295764 -0.07512239 -0.057555266
-0.32791474 -0.16713409 -0.41239843 0.07775954 0.1915411 0.12087801 -0.13746187 -0.060871214
0.25757155 0.16873418 -0.023111356 -0.01112781 0.044735357 -0.062186457 -0.032557752 0.09832097
-0.10647047 0.09007395 -0.18829699 -0.15498592 -0.024421971 -0.12371883 -0.07456008 -0.20956866
0.0004971806 0.018629253 0.33665833 -0.0010124798 -0.05465662 0.17249097 -0.16447274 -0.16325851
-0.1536032 0.15238208 0.37186345 0.013907046 0.016178578 -0.05137315 0.0718537 -0.101211146
-0.266552 -0.086201 0.21583773 -0.21316026 -0.035884056 -0.26059037 -0.08179438 -0.23521747
-0.053483035 -0.15356436 0.10945405 0.007768294 -0.11448029 0.0912728 0.13999136 -0.18736248
-0.0040952195 0.023494175 -0.040380325 0.03711427 0.596594 -0.018010309 -0.24096759 0.11409695
-0.36575368 0.10714347 -0.08347365 0.08914001 -0.1079777 -0.10396695 0.32658863 -0.11199375
-0.17474148 -0.104178704 -0.49252525 0.12683119 0.19670282 -0.0068638152 -0.028254827 -0.06855814
-0.20349474 -0.056914326 -0.11479484 -0.245071 0.033003148 -0.17807102 0.07217719 0.14745268
-0.14376274 0.15407321 0.21095964 -0.042969625 0.112935044 0.04814911 -0.36774307 0.022562305
-0.25373158 0.22567087 0.046249986 0.22948214 -0.13902543 -0.10527859 0.30306268 -0.07057285
0.13819616 -0.16568337 0.14374207 0.17443503 -0.15230227 0.12525892 0.2644186 -0.07305323
-0.06115073 -0.19030733 0.09604543 -0.16273884 -0.08026958 -0.10544613 -0.10108241 0.24244624
-0.062231023 -0.095127955 0.14749183 -0.22848037 -0.03792087 0.11810442 -0.069407634 0.12067261
0.062101148 0.069900416 0.080718376 0.111599885 0.04558669 0.005272899 0.21252817 0.013625685
-0.14132491 0.021117872 -0.04193904 0.44927686 0.018709214 0.0602293 -0.13796484 0.00778951
0.24227951 -0.09820643 -0.109761596 -0.08653615 -0.038227096 -0.34148368 0.026462117 -0.25423527
0.1345047 -0.072872825 -0.11713475 0.08954968 0.03924809 0.10493005 0.19756144 0.24992137
-0.021554302 -0.007548645 0.08400193 0.060741995 -0.09630905 0.080850884 0.052204948 -0.011182678
0.1986534 -0.10350399 -0.12074606 -0.12806855 0.009326517 0.023976231 0.037083365 -0.11260536
-0.2512401 0.04426934 0.04844519 -0.060283482 -0.007816677 -0.28913623 -0.046926975 -0.19548465
0.019724749 -0.0075273565 0.34511843 -0.10545209 0.045346078 0.26898777 0.16061813 -0.10140212
0.2814519 -0.3565288 -0.1835508 0.24220875 0.13878846 0.06570325 0.1729055 -0.0487353
-0.16127597 -0.08822287 0.3676391 0.06413612 -0.053229503 -0.16320273 -0.12398913 0.13700388
0.06747593 0.033128455 0.090948716 -0.11529144 0.0569971 -0.15803112 -0.24333842 -0.15481248
0.09075704 -0.25855818 0.02614166 0.0698824 0.006800615 0.05948983 0.2845591 -0.012902021
0.03943317 0.06322248 0.11524196 0.08935573 -0.13999313 0.051630333 -0.013425511 -0.017458506
-0.16399367 0.14731437 -0.19365598 -0.0033670287 -0.18317354 0.1675454 -0.11933144 -0.041422386
-0.079189405 0.25145993 -0.042504802 -0.013168184 0.2413839 -0.22588757 -0.16243774 0.09507339
00000000: 8ee3 eb3d d8a7 773e 75b5 1e3c c758 f3bd
00000010: 842c a13e c838 6a3c c5d9 99bd 12bf 6bbd
00000020: 71e4 a7be 3325 2bbe e325 d3be 6540 9f3d
00000030: 5a23 443e e48e f73d cec2 0cbe 1854 79bd
00000040: 6be0 833e a7c8 2c3e 0754 bdbc 6b51 36bc
00000050: 6c3c 373d 3ab7 7ebd 475b 05bd 815c c93d
00000060: 310d dabd b178 b83d edd0 40be a1b4 1ebe
00000070: 9610 c8bc 4c60 fdbd f5b2 98bd 2b99 56be
00000080: 3a55 023a 609c 983c 7b5e ac3e 2fb5 84ba
00000090: 9fdf 5fbd 79a1 303e 8b6b 28be 3d2d 27be
000000a0: 284a 1dbe 0c0a 1c3e e364 be3e 61da 633c
000000b0: f088 843c a76c 52bd 0828 933d ca47 cfbd
000000c0: 8179 88be 268a b0bd 9104 5d3e af46 5abe
000000d0: 29fb 12bd 1a6c 85be d083 a7bd d9dc 70be
000000e0: 0711 5bbd fa3f 1dbe 7229 e03d 2c8d fe3b
000000f0: a474 eabd 3ced ba3d e559 0f3e f3db 3fbe
00000100: 3131 86bb db76 c03c d765 25bd 2205 183d
00000110: 62ba 183f 5b8a 93bc 35c0 76be a9ab e93d
00000120: 1144 bbbe 096e db3d 3cf4 aabd 0a8f b63d
00000130: 6a23 ddbd a0ec d4bd a036 a73e fb5c e5bd
00000140: 6eef 32be a55b d5bd 452c fcbe 09e0 013e
00000150: 776c 493e dbe9 e0bb ab76 e7bc 3668 8cbd
00000160: ed60 50be ff1e 69bd 8f19 ebbd e4f3 7abe
00000170: 4f2e 073d 4058 36be a2d1 933d d6fd 163e
00000180: 8a36 13be 5ec5 1d3e ce05 583e eb00 30bd
00000190: 7d4a e73d 0038 453d d248 bcbe 95d4 b83c
000001a0: 1be9 81be 4416 673e a070 3d3d 5efd 6a3e
000001b0: af5c 0ebe 4d9c d7bd 082b 9b3e 8088 90bd
000001c0: 4b83 0d3e e7a8 29be 1f31 133e 199f 323e
000001d0: 20f5 1bbe e043 003e e061 873e ef9c 95bd
000001e0: 3079 7abd eddf 42be 77b3 c43d 03a5 26be
000001f0: 6164 a4bd 24f4 d7bd 4b04 cfbd d443 783e
00000200: f5e5 7ebd 72d2 c2bd 1908 173e c2f6 69be
00000210: ea52 1bbd bbe0 f13d 9725 8ebd 3423 f73d
00000220: c65d 7e3d f327 8f3d ad4f a53d 7b8e e43d
00000230: 1cb9 3a3d 48c8 ac3b fca0 593e 443e 5f3c
00000240: 7ab7 10be 63ff ac3c 45c8 2bbd 9e07 e63e
00000250: 1144 993c 00b3 763d a846 0dbe 253f ff3b
00000260: 1f18 783e 7420 c9bd b0ca e0bd dd39 b1bd
00000270: 0494 1cbd f3d6 aebe 15c7 d83c 202b 82be
00000280: 9abb 093e 593e 95bd 58e4 efbd d365 b73d
00000290: 9bc2 203d 91e5 d63d 8c4d 4a3e 63eb 7f3e
000002a0: a692 b0bc a05a f7bb 3409 ac3d 99cc 783d
000002b0: ae3d c5bd 2695 a53d dbd4 553d 8d37 37bc
000002c0: cc6b 4b3e e6f9 d3bd b649 f7bd 6724 03be
000002d0: 3fce 183c cd69 c43c bae4 173d a49d e6bd
000002e0: 8ba2 80be c453 353d 776e 463d d0eb 76bd
000002f0: 8511 00bc aa09 94be 8036 40bd 212d 48be
00000300: cc95 a13c 0ba8 f6bb 5db3 b03e 44f7 d7bd
00000310: cfbc 393d c4b8 893e 1479 243e eaab cfbd
00000320: 771a 903e f18a b6be bef4 3bbe 9205 783e
00000330: 901e 0e3e 6d8f 863d 240e 313e aa9e 47bd
00000340: 8725 25be 31ae b4bd 313b bc3e cc59 833d
00000350: 2e07 5abd 9e1e 27be 03ee fdbd bf4a 0c3e
00000360: d230 8a3d b4b1 073d 5243 ba3d eb1d ecbd
00000370: cb75 693d e9d2 21be b52d 79be 2a87 1ebe
00000380: d4de b93d bd61 84be 0927 d63c 811e 8f3d
00000390: b2d7 de3b 9cab 733d bbb1 913e 0063 53bc
000003a0: ad84 213d ca7a 813d fa03 ec3d 2300 b73d
000003b0: 5c5a 0fbe 547a 533d adf6 5bbc 2405 8fbc
000003c0: f5ed 27be 94d9 163e c14d 46be 5ea9 5cbb
000003d0: d891 3bbe 0591 2b3e 0b64 f4bd 85aa 29bd
000003e0: 0e2e a2bd 5bbf 803e 8419 2ebd 5ebf 57bc
000003f0: 572d 773e 124f 67be 1456 26be d6b5 c23d

linear2.bias f4 [65]
0.07577652 -0.03791743 0.110523894 -0.0660346 0.016152918 -0.036668543 0.023553707 -0.004582555
-0.11017688 0.0901732 -0.061933346 -0.042283136 0.07302438 0.007829724 0.035728104 0.03231572
-0.052420426 0.07942058 -0.067484945 -0.009009966 -0.011394292 -0.00752023 0.06706622 0.06006472
0.08200202 -0.0077430364 0.117474265 -0.02102788 -0.044863652 -0.0503567 0.04589634 -0.061761595
0.042525534 -0.0065985573 0.06313918 0.06279202 -0.05201093 -0.1010811 0.087400116 0.0049876915
0.0077692824 -0.008202163 -0.07213328 -0.04439109 0.03378237 0.090401076 -0.091838345 0.08860417
-0.049086533 0.05101535 0.059056908 0.01071784 -0.08494326 -0.03891878 0.01451128 -0.09287748
-0.062161613 -0.058333103 -0.055061456 -0.022619814 0.0066043627 0.03596977 0.008066275 0.050872706
0.043886
00000000: b830 9b3d 4f4f 1bbd 5a5a e23d 263d 87bd
00000010: 2053 843c c131 16bd b4f3 c03c 4229 96bb
00000020: 6ba4 e1bd baac b83d d2ad 7dbd 1531 2dbd
00000030: ce8d 953d 3e48 003c a257 123d 7d5d 043d
00000040: cdb6 56bd 42a7 a23d 8c35 8abd 899e 13bc
00000050: 20af 3abc 436c f6bb 045a 893d 6d06 763d
00000060: adf0 a73d 4cb9 fdbb 5996 f03d a942 acbc
00000070: f3c2 37bd d442 4ebd cdfd 3b3d baf9 7cbd
00000080: 412f 2e3d b638 d8bb 1d4f 813d 1a99 803d
00000090: 6a09 55bd 9c03 cfbd d5fe b23d ca6f a33b
000000a0: 7795 fe3b 5d62 06bc 9dba 93bd 6ed3 35bd
000000b0: 625f 0a3d 3324 b93d be15 bcbd 1a76 b53d
000000c0: f60e 49bd 79f5 503d a8e5 713d e199 2f3c
000000d0: bbf6 adbd 4c69 1fbd b8c0 6d3c 8c36 bebd
000000e0: 2d9d 7ebd b1ee 6ebd 1f88 61bd 304d b9bc
000000f0: 6969 d83b 0a55 133d 6928 043c e65f 503d
00000100: cec1 333d
