data/pretrained_embeddings/kmer3_len20_epoch5_cbow_model.pt (torch_old, 189428 bytes, 5 tensors)

embeddings.weight f4 [65, 200]
0	0xbe0ba6cf	-0.13637851
1	0xbfe867eb	-1.8156713
2	0xbe8f56b8	-0.2799585
3	0xbf89cc12	-1.0765402
4	0xc01ee57e	-2.482757
5	0xbf3d9267	-0.7405152
6	0xbff68b1b	-1.9261202
7	0x3f92bda6	1.1464126
8	0xbfa84019	-1.3144561
9	0x3f470bdf	0.7775249
10	0xbfe9e8e4	-1.8274198
11	0x3ef211d8	0.4727924
12	0xbe6831b8	-0.22675216
13	0x3e817471	0.2528415
14	0xbf536285	-0.82572204
15	0xbda1e1de	-0.07904409
16	0xbede65cf	-0.4343705
17	0xbef9beab	-0.4877828
18	0x3ef5f2f6	0.48036927
19	0x3f15a2a9	0.58451325
20	0xbfc2b3fd	-1.5211178
21	0x3fdff3e1	1.7496301
22	0xbe39af8b	-0.1813337
23	0xbeadacb4	-0.33920825
24	0xbf3d603c	-0.73974967
25	0xbfa79c86	-1.3094642
26	0xbf4d9779	-0.80309254
27	0xbe0b0b9a	-0.13578644
28	0x3f463152	0.77419007
29	0x3eafa4a6	0.34305304
30	0xbf8ef5a5	-1.1168715
31	0x3cbcacba	0.023031581
32	0x3dc3b551	0.09556068
33	0xbfe04b58	-1.7522993
34	0x3f0ee845	0.55823165
35	0x3f196048	0.5991254
36	0x40131749	2.2982962
37	0x3ec0b5f3	0.37638816
38	0xbe2e92cf	-0.1704819
39	0x3f839481	1.0279695
40	0x3f3e4533	0.7432434
41	0xbf956b90	-1.167345
42	0x3f0d5829	0.55212647
43	0xbe46af17	-0.19402729
44	0xbfab8701	-1.3400575
45	0x4054ceca	3.3251214
46	0x3e679130	0.22613978
47	0xbef63e38	-0.48094344
48	0xbfa11db4	-1.258719
49	0x3cfabb59	0.030606912
50	0xbf816ffc	-1.01123
51	0x3f169fad	0.58837396
52	0xbfd9bcd6	-1.7010753
53	0x3fea6a5c	1.8313708
54	0x3f447354	0.76738477
55	0xbe8a780e	-0.2704472
56	0x3fab319d	1.3374516
57	0xbe030808	-0.12796032
58	0x3f5a40f7	0.8525538
59	0xbf34f279	-0.70682484
60	0x3e3ddc67	0.18541108
61	0x404f8d0e	3.2429843
62	0xbf982dad	-1.1888939
63	0xbd87ccbf	-0.06630849
64	0x3fae1a1b	1.3601717
65	0xbfc1d6df	-1.5143698
66	0xbfdc9162	-1.7231867
67	0x3f6c6cdf	0.92353624
68	0x3f74cc30	0.95624065
69	0x3e88e22c	0.26735055
70	0xbf5b478c	-0.85656047
71	0x3f0a4903	0.5401766
72	0x3f56228a	0.8364645
73	0x3e63032e	0.22169182
74	0xbfca35c7	-1.5797662
75	0xbfad11d3	-1.3521065
76	0x3d8d4079	0.06897063
77	0x3f98677e	1.1906583
78	0x3ec1cf3a	0.37853414
79	0xbe29ffc4	-0.16601473
80	0x402c6545	2.693681
81	0x3f93e858	1.1555281
82	0x3f0e9870	0.5570135
83	0x3f45ee33	0.7731659
84	0x3ed8f611	0.42375234
85	0xbf068088	-0.52539873
86	0x3e060187	0.1308652
87	0xc009a0c0	-2.1504364
88	0xbeb841ee	-0.359878
89	0xbe96cf69	-0.29455116
90	0x3f44a589	0.76815087
91	0x3f05bebc	0.5224416
92	0xbe90f083	-0.28308496
93	0xbf2a74dd	-0.6658457
94	0x3f885eb6	1.0653903
95	0x3db4e89c	0.08833429
96	0xbfe98c3a	-1.8245919
97	0xbf837e3f	-1.0272902
98	0x401ef808	2.4838886
99	0xbf07a182	-0.52980816
100	0x3d860e78	0.065457284
101	0x3f690848	0.9102826
102	0xbf274707	-0.65342754
103	0xbf2462a1	-0.64212996
104	0x3f966dad	1.175222
105	0x3f31940f	0.69366544
106	0xbec6dde6	-0.3884117
107	0x3e01049d	0.12599416
108	0x3de2af28	0.11068565
109	0xbe6a3215	-0.22870667
110	0x3f2fe506	0.6870884
111	0x3e41f15d	0.18939729
112	0x3f610534	0.87898564
113	0x400f76d2	2.2416272
114	0xbf558e4c	-0.8342025
115	0x3f81ed6a	1.0150578
116	0xbc608513	-0.013703602
117	0xbd01a427	-0.03165069
118	0xbe765d7c	-0.24059099
119	0x3efc6d24	0.49302018
120	0x3f87f60e	1.0621965
121	0xbf079ba2	-0.5297185
122	0x3f4751e5	0.77859336
123	0xbf3fb362	-0.7488309
124	0x3fc39f15	1.5282923
125	0x3ee043dc	0.43801773
126	0x3f1372b4	0.575969
127	0xbfb2cc8f	-1.3968676
128	0xbe8dd4d6	-0.27701443
129	0xbfda8aac	-1.7073569
130	0xbe826cf8	-0.25473762
131	0x3f5a5587	0.85286754
132	0xbcc65f7d	-0.024215454
133	0xbf0246f9	-0.50889546
134	0xbec21cf2	-0.3791271
135	0x3db446e6	0.08802585
136	0xbf762a75	-0.96158534
137	0x3ff32a86	1.8997352
138	0x3f782d72	0.96944344
139	0x3d9ba536	0.07599871
140	0x3d7ffbbb	0.06249593
141	0xbe131c74	-0.14366323
142	0x3fae34a1	1.3609811
143	0xbf90b5e0	-1.1305504
144	0x3ea12fe3	0.31481847
145	0x3f2f4aa7	0.68473285
146	0xbf3f20d1	-0.7465945
147	0xbfb8015d	-1.4375416
148	0x3f89a0e0	1.075222
149	0x3fc2f4ca	1.5230954
150	0x3e961c6c	0.2931856
151	0xbe35807d	-0.17724796
152	0xbf9b2ba3	-1.2122692
153	0x3eef943d	0.46792784
154	0x3f63bbd0	0.88958454
155	0xbff1122d	-1.8833672
156	0x3f0b7343	0.5447275
157	0x3e6e5afe	0.23276898
158	0xbe48c0c5	-0.19604786
159	0xbf1294d4	-0.57258344
160	0x4007c269	2.1212409
161	0xbeeef16c	-0.46668565
162	0x3f09c405	0.5381473
163	0xbf7e292a	-0.9928156
164	0xbe1f173e	-0.1553621
165	0x4011c965	2.2779171
166	0x3f4bde04	0.79635644
167	0x3fa74c05	1.3070074
168	0x3e396b1c	0.18107265
169	0x3e99d8d4	0.3004824
170	0xbf1620c4	-0.58643746
171	0xbecd1426	-0.40054435
172	0xc0366785	-2.8500683
173	0xbe647d06	-0.22313318
174	0x3e7e7c89	0.24852194
175	0x3d52ba4b	0.051447194
176	0x3f2a7828	0.66589594
177	0x3e99fa93	0.30073985
178	0x3eb06928	0.34455228
179	0xbed87b80	-0.42281723
180	0x3fc68406	1.550904
181	0xbf889bd0	-1.067255
182	0xbe79e966	-0.2440544
183	0xbd8d73e7	-0.06906872
184	0x3eec4d63	0.4615279
185	0xbe689f66	-0.22717056
186	0xbf09fc10	-0.5390024
187	0x3e5a3870	0.21310592
188	0x3f10a537	0.565021
189	0xbf5a929f	-0.85379976
190	0xc006a9f4	-2.104123
191	0x3f8f72bb	1.1206888
192	0x3e1bbbf9	0.15208425
193	0xbf21036c	-0.62895846
194	0xbec34cae	-0.3814444
195	0x3d514402	0.051090248
196	0x3f3aa95d	0.7291468
197	0xbf7f4750	-0.9971819
198	0xbeea7352	-0.45791107
199	0x3e2803a4	0.16407639
200	0xbfa289f0	-1.2698345
201	0x3f05504a	0.52075636
202	0xbd73210e	-0.059357695
203	0xbfad565b	-1.3541979
204	0xbe587392	-0.21137837
205	0xbf32dd04	-0.69868493
206	0x3fced351	1.6158239
207	0x4005b4a1	2.0891497
208	0x3e855591	0.26041844
209	0x3f3543f4	0.70806813
210	0xc01e3af7	-2.472349
211	0xbef82bff	-0.48471066
212	0x3ed91bd2	0.42404038
213	0xbee912df	-0.4552221
214	0x3f3ce70c	0.7379005
215	0xbeea42fd	-0.45754233
216	0x3fb1e23e	1.3897169
217	0xbf0d7290	-0.55252934
218	0xbd76298d	-0.06009822
219	0xc00d16fc	-2.2045279
220	0x3e08c755	0.13357289
221	0xbf0e7c8b	-0.5565879
222	0x3f243ae7	0.6415238
223	0xbeee1d64	-0.46506798
224	0xbf526891	-0.82190806
225	0xbe4bc1c8	-0.1989814
226	0x3f51830c	0.81840587
227	0x3f8da360	1.1065483
228	0x3f157c22	0.58392537
229	0xbef39128	-0.47571683
230	0xbfe34ba5	-1.775746
231	0x3f8d5f28	1.1044664
232	0x3ed1eb8c	0.4100002
233	0x3ee83174	0.4535023
234	0x3f48acf4	0.78388906
235	0x3e84dc2f	0.25949237
236	0x3a9779a7	0.0011556641
237	0x3f9428b3	1.157492
238	0xbbeb4f11	-0.0071810563
239	0x3f2b11b8	0.6682391
240	0x3f92796e	1.1443307
241	0x3f238ae4	0.63883805
242	0x3f0d976f	0.55309194
243	0x3e03a6b7	0.12856565
244	0xbf0502d5	-0.51957446
245	0x3e7e6950	0.24844861
246	0x3fa7879a	1.3088257
247	0x3e74f181	0.23920251
248	0x3ef55f3a	0.47924215
249	0xbfa55558	-1.291667
250	0x3f53b529	0.82698303
251	0xbf84d9fb	-1.0379022
252	0x3f428817	0.75988907
253	0x3fe89662	1.8170893
254	0xbddd22b2	-0.10797633
255	0xbe961a3d	-0.29316893

linear1.weight f4 [128, 200]
0	0xbc4a9898	-0.012365483
1	0xbd6c6715	-0.057715494
2	0x3dd5b3ec	0.10434708
3	0xbd4b0fea	-0.049575724
4	0xbe5d21b1	-0.21594884
5	0xbc86609d	-0.01640349
6	0x3e5ba872	0.21450976
7	0xbdbfd59b	-0.09366914
8	0xbd127456	-0.035755478
9	0xbe53ee04	-0.20696265
10	0x3ce71480	0.028208017
11	0xbda498fe	-0.080369934
12	0x3c7a7637	0.015286974
13	0xbceb7b3f	-0.028745292
14	0xbd1690f1	-0.03675932
15	0xbe429e45	-0.19005688
16	0xbd96ace1	-0.07357193
17	0x3e89c313	0.26906642
18	0xbdf06688	-0.11738306
19	0xbd98cdbc	-0.07461116
20	0xbcff4952	-0.031162892
21	0x3e12654b	0.14296453
22	0x3c4ef8f3	0.012632596
23	0x3cad0733	0.021121597
24	0x3d91714d	0.071016885
25	0xbc6a81a0	-0.014313132
26	0x3e0d761d	0.13814588
27	0x3d582534	0.052769855
28	0xbe7c531f	-0.24641083
29	0xbbe0cb59	-0.0068601784
30	0x3c0044a8	0.007828869
31	0xbe2ed35c	-0.17072815
32	0x3c74bd9f	0.014937787
33	0xbd86b159	-0.06576795
34	0x3e029419	0.12751807
35	0x3e31c68a	0.17360893
36	0x3d6b8317	0.057498064
37	0xbe0fd625	-0.14046533
38	0x3b70be6e	0.0036734599
39	0xbd2f9a2a	-0.04287163
40	0xbdaf72e4	-0.085668355
41	0x3c497be0	0.0122976005
42	0xbd63f5c3	-0.0556543
43	0x3d916b22	0.07100512
44	0xbd61d8b3	-0.0551383
45	0xbc04f3ec	-0.008114796
46	0xbd98411c	-0.07434294
47	0xbe06c9a0	-0.13162851
48	0xbd72f3e9	-0.059314642
49	0xbd7d23dd	-0.06180178
50	0x3e331492	0.17488316
51	0x3de9b41c	0.11411306
52	0x3d8bb52f	0.068216674
53	0xbdbd6b06	-0.09248929
54	0xbc8d107d	-0.017219776
55	0x3d657c95	0.056027014
56	0xbe13e5f1	-0.14443184
57	0xbbe4034f	-0.006958402
58	0xbd34e8d0	-0.04416734
59	0x3e87e75f	0.2654371
60	0x3cf739e9	0.03017898
61	0xbda5fa94	-0.081044346
62	0xbdc17a16	-0.09447114
63	0x3db50dd8	0.08840531
64	0x3d101ea5	0.035185475
65	0x3e316b98	0.173262
66	0xbdf96604	-0.12177661
67	0x3db5f12b	0.0888389
68	0x3d91022b	0.07080492
69	0x3d732805	0.059364337
70	0x3df93f6a	0.121702984
71	0x3ca8bf78	0.020599112
72	0x3e259258	0.16169107
73	0xbd12396d	-0.035699297
74	0x3d5381d6	0.051637493
75	0xbe000ae0	-0.12504148
76	0xbb807b98	-0.0039209835
77	0x3e08592b	0.13315265
78	0xbddccfd7	-0.1078183
79	0x3bb3f9fb	0.0054924465
80	0xbd970fa4	-0.0737603
81	0x3d9e2f1d	0.0772383
82	0x3e2b87e3	0.16751055
83	0xbe18a832	-0.14907911
84	0xbdc74e89	-0.09731776
85	0x3d149765	0.036277194
86	0x3e269594	0.16267997
87	0x3decd54e	0.11564122
88	0x3e23595d	0.15952058
89	0x3d948c83	0.07253363
90	0xbd9074b1	-0.07053507
91	0xbdcff2e6	-0.10153751
92	0xbdf6d161	-0.120516546
93	0x3d1f56d9	0.038901184
94	0x3c8c4563	0.01712293
95	0xbdb32ef3	-0.08749189
96	0xbe21b480	-0.15791512
97	0x3dc722e7	0.09723454
98	0x3e07037a	0.1318492
99	0x3d5d04df	0.053959724
100	0xbe3e88a2	-0.18606809
101	0x3e866283	0.26247033
102	0xbe862cb1	-0.26205972
103	0x3cb0477c	0.021518461
104	0xbd7e0cdf	-0.062023994
105	0xbe3cfdd7	-0.18456207
106	0x3e10ec77	0.14152704
107	0x3d464111	0.048401896
108	0xbdd01b17	-0.10161417
109	0xbe11865b	-0.14211409
110	0x3d1ec546	0.038762353
111	0xbdc966b7	-0.098340444
112	0x3d06cb88	0.032908946
113	0x3d2aeecd	0.041731644
114	0xbeaf037a	-0.3418234
115	0xbd0c5407	-0.034259822
116	0xbe17ce72	-0.14824846
117	0x3cb45c97	0.022016807
118	0xbe1b13ec	-0.15144318
119	0x3d89d6be	0.06730412
120	0xbb9287d9	-0.0044717607
121	0xbda2bc14	-0.07946029
122	0xbd7aad5c	-0.061200485
123	0x3df20e21	0.11819101
124	0x3e085af3	0.13315944
125	0xbbc8508f	-0.006113119
126	0x3d1fca25	0.03901114
127	0x3d2c0b42	0.042002924
128	0xbcdcb019	-0.026939439
129	0x3dacafd5	0.08431975
130	0xbe5106bf	-0.2041273
131	0xbc874a20	-0.016514838
132	0xbb97311c	-0.0046140086
133	0xbe89ca3f	-0.26912114
134	0xbdcfd910	-0.10148823
135	0x3bdc46a8	0.00672229
136	0x3c9802a0	0.01855594
137	0x3dbb4b8d	0.091452695
138	0x3d2df3d1	0.04246885
139	0x3db3539c	0.087561816
140	0xbde67a0d	-0.11253748
141	0x3c52b1d4	0.01285978
142	0xbc585d44	-0.01320583
143	0xbe5f2a3b	-0.21793453
144	0xbe4c55cd	-0.19954605
145	0x3dbe48a5	0.092911996
146	0x3d9791c4	0.074008495
147	0xbd7c7c7d	-0.06164216
148	0x3cacac0e	0.021078136
149	0x3dd71b5c	0.10503265
150	0x3de2ea92	0.11079897
151	0x3b9d4314	0.004799256
152	0xbd9d853d	-0.07691429
153	0x3dbe5a82	0.09294607
154	0x3e3611b8	0.17780197
155	0xbe580887	-0.21097003
156	0x3d8d4f0a	0.06899841
157	0x3d0a8755	0.03382047
158	0x3d3df48f	0.046375807
159	0xbd302aa6	-0.043009423
160	0xbe176c11	-0.14787318
161	0xbcba8f49	-0.022773402
162	0x3da14ad9	0.07875604
163	0x3e2f240e	0.17103598
164	0xbcbdeff8	-0.023185715
165	0x3e02c964	0.12772137
166	0x3db50302	0.08838464
167	0x3d88150f	0.066446416
168	0x3ded5d8d	0.11590109
169	0x3cc56af2	0.024098847
170	0xbd6e91d9	-0.05824456
171	0xbe20c7c5	-0.15701206
172	0xba9258f8	-0.0011165431
173	0x3d76bd09	0.06023887
174	0xbdf12b1c	-0.117758006
175	0x3dd1413f	0.10217523
176	0x3e0184a5	0.12648256
177	0x3daf0a11	0.08546842
178	0xbc7c3cba	-0.015395338
179	0x3e42c728	0.19021285
180	0x3d982cdf	0.074304335
181	0xbd01a654	-0.031652763
182	0xbe64ff6d	-0.22363062
183	0x3caa2802	0.02077103
184	0xbde22219	-0.1104166
185	0x3d7c4079	0.061584923
186	0xbd86aec3	-0.06576302
187	0x3d93973b	0.07206579
188	0x3ca4ec6b	0.020132264
189	0x3e296f12	0.16546276
190	0xbdd3327c	-0.103123635
191	0x3ce4b305	0.027917394
192	0xbd339340	-0.0438416
193	0xbe08f436	-0.13374409
194	0xbe65509e	-0.22394034
195	0x3e32f670	0.17476821
196	0x3e3b7df4	0.18309766
197	0x3dec4588	0.115366995
198	0x3e5736a4	0.21016937
199	0xbd87df6a	-0.0663441
200	0xbdfec520	-0.12439942
201	0x3ca4d7fd	0.020122522
202	0xbdf08580	-0.11744213
203	0xbbff4b78	-0.007790979
204	0x3d22ccf5	0.039746244
205	0xbbd5a085	-0.0065193796
206	0xbe74779b	-0.23873751
207	0xbe1316b0	-0.14364123
208	0x3d88fbcc	0.066886514
209	0x3b3cd4e5	0.0028813418
210	0x3c6ef480	0.0145846605
211	0x3dbce6fe	0.09223746
212	0xbd2bf1fa	-0.041978814
213	0x3e042b41	0.12907125
214	0xbe55bc87	-0.20872699
215	0x3d70e326	0.058810376
216	0xbce78b10	-0.028264552
217	0x3e19531a	0.14973107
218	0xbd0c6528	-0.034276158
219	0x3e0e784e	0.1391308
220	0xbc9b397d	-0.018948311
221	0xbc0e7fe8	-0.008697487
222	0x3d37368a	0.044729747
223	0xbe1b7404	-0.15180975
224	0x3d89899d	0.06715701
225	0xbd78e31b	-0.06076346
226	0x3e4a45b5	0.19753154
227	0x3d376434	0.044773296
228	0x3e28c481	0.1648121
229	0x3e1e3c3e	0.15452668
230	0x3dfb5ca7	0.122735314
231	0x3c59b151	0.013286904
232	0xbdf19e15	-0.1179773
233	0xbe112641	-0.14174749
234	0xbacb42e7	-0.0015507609
235	0x3d951f06	0.07281308
236	0x3e51a226	0.20472011
237	0xbde015e5	-0.10941676
238	0x3c6088a2	0.013704451
239	0x3d7cfd22	0.061764844
240	0xbd539896	-0.05165919
241	0xbe734dcc	-0.23760146
242	0xbd99a240	-0.0750165
243	0x3d19b31d	0.03752433
244	0xbcb454db	-0.022013118
245	0xbd6fdfd2	-0.05856306
246	0x3de4705d	0.11154244
247	0x3cb6f439	0.022333251
248	0x3e9bda74	0.30440104
249	0x3dce4123	0.100710176
250	0xbd01b5c1	-0.031667475
251	0x3ca18a4d	0.019719267
252	0xbcc12945	-0.02357925
253	0xbb850c63	-0.0040603145
254	0xbe073a07	-0.1320573
255	0x3c3f448f	0.0116740605

linear1.bias f4 [128]
0	0x3b2cd19a	0.002637005
1	0xbd3f720b	-0.04673962
2	0xbd2117f2	-0.039329477
3	0xbce8b3e3	-0.02840609
4	0xbceccbe4	-0.028905816
5	0xbd76d37a	-0.060260274
6	0xbd406b73	-0.04697747
7	0xbcb13c1e	-0.021635111
8	0xbd47fa45	-0.04882266
9	0x3d56d790	0.05245167
10	0xbd5330c1	-0.051560167
11	0x3cd3168a	0.025767583
12	0x3d2c8dd5	0.04212745
13	0x3ce1580d	0.027507806
14	0xbd89ce13	-0.06728759
15	0xbd28658a	-0.04111246
16	0x3d401366	0.0468935
17	0xbd6420ed	-0.055695463
18	0x3d8d124c	0.068882555
19	0x3d0f16e1	0.03493393
20	0x3d3ecf9f	0.04658472
21	0xbc33b4fc	-0.010968443
22	0xbc908805	-0.017642984
23	0x395125b3	0.00019945837
24	0xbd0aea9f	-0.03391516
25	0xbd33b3c2	-0.043872602
26	0xbbb4c97f	-0.0055171843
27	0xbca3d1af	-0.019997446
28	0xbcb14b99	-0.021642493
29	0xbd5ebcc0	-0.054379225
30	0x3d948781	0.07252408
31	0xbd9c462a	-0.0763057
32	0xbd5dacc4	-0.05411984
33	0xbc81204a	-0.015762467
34	0x3db75265	0.089512624
35	0xbca64126	-0.020294737
36	0xbd440831	-0.047859374
37	0xbd59b096	-0.05314692
38	0xbc85014a	-0.016235966
39	0xbd44fdbe	-0.04809355
40	0x3d724678	0.059149235
41	0xbd4edc8c	-0.0505033
42	0x3d45b8e6	0.048272036
43	0xbc2600e4	-0.010132048
44	0xbcc7767d	-0.024348492
45	0x3d23ed04	0.040020958
46	0x3cd5098a	0.026005525
47	0x3d5dc85f	0.054146167
48	0xbc3a3034	-0.011364032
49	0xbc636a55	-0.013880332
50	0x3da05fad	0.07830749
51	0x3d343b7d	0.044002045
52	0xbd68931c	-0.05678092
53	0xbd23c8de	-0.039986484
54	0xbd4138bc	-0.047173247
55	0xbd95642f	-0.07294499
56	0x3c9bd23e	0.01902115
57	0xbdaa3615	-0.083110966
58	0xbd475228	-0.048662335
59	0xbd2aad99	-0.041669462
60	0x3d6809fb	0.056650143
61	0x3d31ecaa	0.04343859
62	0xbcc172bf	-0.023614286
63	0x3d821b7c	0.063528985
64	0xbd530d4e	-0.05152636
65	0xbc6e463d	-0.014543113
66	0x3d16250d	0.036656428
67	0x3d7ee0dc	0.06222616
68	0x3d82393b	0.06358572
69	0xbd681b49	-0.056666646
70	0x3c8e6160	0.017380416
71	0xbd293485	-0.041309852
72	0xbd93fb4d	-0.07225666
73	0xbd32d084	-0.043655887
74	0xbc95b2f1	-0.018273802
75	0x3d13b91b	0.036065202
76	0x3d797dbd	0.06091093
77	0xbcae7f70	-0.021301001
78	0x3cbba035	0.022903541
79	0xbccb313b	-0.024803748
80	0xbd40327c	-0.046923146
81	0xbc54561a	-0.012959981
82	0xbd1aa84c	-0.037758157
83	0xbd44716f	-0.04795974
84	0x3d667576	0.056264363
85	0x3c0429c3	0.008066597
86	0xbd9d61ef	-0.07684695
87	0xbbe447f5	-0.0069665858
88	0x3cf2d0c0	0.029640555
89	0x3d037031	0.032089416
90	0xbda4236e	-0.0801457
91	0xbd169796	-0.036765657
92	0xbd937bd7	-0.07201355
93	0x3cc6b317	0.024255319
94	0xbc8103ac	-0.015748821
95	0x3cf1f45b	0.029535463
96	0x3cfb31bb	0.030663362
97	0xbcb0ea79	-0.02159618
98	0x3d69ae5a	0.05705104
99	0x3d93a862	0.07209851
100	0x3b021a52	0.0019852114
101	0xbd656578	-0.05600497
102	0x3d972e27	0.0738185
103	0xbd49cff6	-0.049270593
104	0x3d9d696c	0.07686123
105	0xbd8ce95b	-0.068804465
106	0xbbeacc6a	-0.0071654813
107	0xbdab52af	-0.0836538
108	0x3d397951	0.045281712
109	0x3d61881d	0.05506145
110	0xbd5ec4b3	-0.054386806
111	0xbdb1e6c7	-0.086865954
112	0xbcfb6223	-0.030686444
113	0xbd7a4ed6	-0.06111034
114	0x3d993e9b	0.07482644
115	0xbc7c2e9e	-0.015391974
116	0xbc83563f	-0.016032336
117	0xbb85451d	-0.004067077
118	0xbd2afec5	-0.041746873
119	0x3db9f6cf	0.09080278
120	0xbcd3b359	-0.025842356
121	0xbd630996	-0.055429064
122	0xbc1f139d	-0.009709266
123	0xbd8e31c2	-0.06943084
124	0xbd079bd0	-0.03310758
125	0xbd3a5591	-0.04549176
126	0xbd5ebb5d	-0.054377902
127	0xbd174b82	-0.036937244

linear2.weight f4 [65, 128]
0	0xbd5b646b	-0.053562563
1	0x3b2eae02	0.002665401
2	0xbda59c4f	-0.08086454
3	0xbb776134	-0.0037747147
4	0x3e734cd6	0.2375978
5	0xbe0d3aab	-0.13791911
6	0x3ddd36e2	0.10801484
7	0x3e6830ca	0.22674862
8	0xbdf5c0d8	-0.11999673
9	0x3ec76b4b	0.38949046
10	0x3e2a8420	0.16651964
11	0x3d05714f	0.032578763
12	0xbd888ba5	-0.0666726
13	0x3e22d021	0.15899707
14	0xbd74ecd6	-0.059796177
15	0x3df8da8e	0.12151061
16	0xbd4fd8c1	-0.050743822
17	0xbe1b22f3	-0.15150051
18	0x3dacfc39	0.08446545
19	0x3a11a1a3	0.0005555397
20	0xbe94c15c	-0.29053771
21	0x3e2dcddc	0.1697306
22	0xbda023ca	-0.07819326
23	0x3e833bbd	0.25631514
24	0xbd658b35	-0.05604096
25	0x3b4d145f	0.003129266
26	0xbe0b509d	-0.1360497
27	0x3d6fc5ba	0.058538176
28	0xbdb61aa0	-0.08891797
29	0xbd0cb25d	-0.034349788
30	0xbccbe416	-0.024889033
31	0xbd0f1e42	-0.034940965
32	0xbcf420b6	-0.029800754
33	0xbbfc4775	-0.007698948
34	0xbc8da1f3	-0.017289137
35	0xbca4be90	-0.020110399
36	0xbe4f18c7	-0.20224296
37	0xbd6ae37e	-0.05734586
38	0xbd34d293	-0.04414613
39	0x3c4dfc90	0.012572423
40	0x3e6e9f55	0.23302968
41	0xbdb00212	-0.08594145
42	0xbe42d863	-0.19027857
43	0xbd8b79eb	-0.068103634
44	0x3c62867d	0.01382601
45	0x3df5326c	0.11972508
46	0x3d69b163	0.057053935
47	0x3e14b3f7	0.14521776
48	0xbe3d562f	-0.18489908
49	0x3e357cc6	0.17723379
50	0xbe18a05f	-0.14904927
51	0x3dadc3c7	0.08484607
52	0xbdc16c44	-0.09444478
53	0xbdae25db	-0.08503314
54	0xbc0a6114	-0.008445997
55	0x3d129fca	0.035796918
56	0x3c7d62ae	0.015465422
57	0x3d913b60	0.07091403
58	0x38c7a504	9.519796e-05
59	0xbe2286e1	-0.15871765
60	0xbdac5bc0	-0.084159374
61	0xbc4eb4a8	-0.012616314
62	0x3e00ed31	0.12590481
63	0xbe36381f	-0.17794846
64	0x3e20279d	0.15640111
65	0x3dc024f8	0.09382051
66	0xbe61c413	-0.22047453
67	0xbdb8b0b8	-0.090180814
68	0x3e61b21c	0.220406
69	0x3d9d206e	0.07672201
70	0x3e74076e	0.23830959
71	0x3c42e4d9	0.011895382
72	0x3d5e7803	0.05431367
73	0x3acf91a2	0.0015836249
74	0xbc4a61b6	-0.012352398
75	0x3d9bf593	0.07615199
76	0xbd5d7057	-0.054062214
77	0x3e2e486c	0.17019814
78	0x3dd6f2ea	0.10495551
79	0xbd8fb724	-0.07017353
80	0x3c05bdae	0.008162899
81	0x3b427faf	0.0029678156
82	0x3d3d131f	0.046160813
83	0x3d707b3c	0.058711275
84	0x3d9645ad	0.07337508
85	0xbd2c516b	-0.042069834
86	0x3db2fe57	0.08739918
87	0xbc124699	-0.008927965
88	0x3e0b074a	0.13577
89	0x3e33492d	0.17508383
90	0xbdcb36df	-0.09922575
91	0x3d0b3b35	0.03399201
92	0xbde379f1	-0.11107243
93	0xbc9a0ede	-0.018805917
94	0xbe75bd5e	-0.23998019
95	0xbba98374	-0.005173141
96	0x3e44a86f	0.19204877
97	0x3b00c15c	0.0019646501
98	0xbb79c488	-0.0038111527
99	0x3d9d163a	0.07670255
100	0xbd19b8ab	-0.03752963
101	0xbd5d2d0b	-0.053998034
102	0xbd72e2d7	-0.059298363
103	0x3c8feee1	0.017569961
104	0x3e16bdd9	0.14720859
105	0xbcdf9543	-0.027292853
106	0x3e3c8192	0.18408802
107	0x3d6f440c	0.058414504
108	0xbd2316eb	-0.03981678
109	0x3ce3e1c0	0.027817607
110	0x3c9e3512	0.019312415
111	0xbf0aac29	-0.54168946
112	0xbd516738	-0.051123828
113	0x3e1be9ec	0.15225953
114	0xbe29b114	-0.16571456
115	0xbeea5203	-0.45765695
116	0xbdd30b78	-0.10304922
117	0xbe2f3ff7	-0.17114244
118	0xbe199a8e	-0.15000364
119	0xbd900bfc	-0.07033536
120	0xbdd73505	-0.105081595
121	0x3dbe6e9c	0.09298441
122	0x3dce407b	0.100708924
123	0xbbd74b20	-0.006570235
124	0x3e9c2cf9	0.3050306
125	0x3e8236bc	0.25432384
126	0xbe01f3aa	-0.12690607
127	0x3db8d062	0.09024121
128	0x3e365791	0.17806841
129	0x3edec524	0.4350978
130	0xbc039c7d	-0.008032915
131	0x3cfe96c7	0.031077756
132	0xbcce020a	-0.025147457
133	0x3da0e6e8	0.07856542
134	0x3d28c544	0.041203752
135	0x3d3fa807	0.046791103
136	0x3d2321dd	0.039827216
137	0xbdf41e3a	-0.11919828
138	0x3d6c7ab4	0.057734206
139	0x3cb4c39f	0.022065936
140	0xbde26f39	-0.1105637
141	0xbdf0ab39	-0.11751408
142	0xbbeb2f2f	-0.0071772556
143	0xbc957b0d	-0.018247152
144	0xbdefb946	-0.1170526
145	0x3dd5271c	0.1040785
146	0x3df12dd4	0.11776319
147	0xbd3ea6e8	-0.046545893
148	0xbd046bfd	-0.03232955
149	0xbe138504	-0.1440621
150	0x3e473d5f	0.19457005
151	0x3de09db0	0.109675765
152	0x3e5c6fdd	0.21527047
153	0x3e698ca3	0.22807555
154	0x3dcd0d35	0.10012285
155	0x3d6f5763	0.058432948
156	0xbe587d4d	-0.21141548
157	0xbc1d19cf	-0.009588673
158	0xbd8991b3	-0.06717243
159	0xbc2e9fbf	-0.010658204
160	0x3c3f267e	0.011666892
161	0x3e1596b8	0.14608276
162	0x3bf7fd10	0.007568009
163	0x3db26dd7	0.087123565
164	0x3e1ffd73	0.15624027
165	0x3d879896	0.066209
166	0xbdd2620c	-0.10272607
167	0x3df82b2b	0.12117609
168	0x3de9eebd	0.11422489
169	0xbd890691	-0.066907056
170	0xbb17bcee	-0.0023153382
171	0x3e66196a	0.22470632
172	0x3d48b15a	0.04899726
173	0x3e49210a	0.1964151
174	0xbd62c1ab	-0.055360477
175	0xbccc317f	-0.024925945
176	0x3da749ca	0.08168371
177	0xbdbc6fc9	-0.09201009
178	0xbc351602	-0.01105261
179	0x3e53ae0d	0.20671864
180	0xbaeeb983	-0.0018213246
181	0x3e38e4a5	0.18055971
182	0x3d66e903	0.05637456
183	0xbbbb2c73	-0.005712086
184	0xbe194c4f	-0.14970516
185	0xbdd124ca	-0.10212095
186	0xbe3ae7af	-0.18252443
187	0xbe3114b3	-0.17293052
188	0xbe7844ce	-0.24244997
189	0x3df86e66	0.12130432
190	0xbd088556	-0.033330284
191	0xbe521db5	-0.20519145
192	0xbdde5ce4	-0.10857561
193	0xbe250a47	-0.16117202
194	0x3e322f28	0.17400801
195	0x3c750bc1	0.014956416
196	0x3e744b94	0.23856956
197	0x3ddd9f1f	0.108213656
198	0xbe4ff122	-0.20306829
199	0x3e0a7a27	0.1352316
200	0x3d3931c0	0.04521346
201	0xbcb59373	-0.022165036
202	0x3d808139	0.06274647
203	0xbe07e1d1	-0.13269736
204	0xbd555817	-0.052085962
205	0xbd809226	-0.062778756
206	0xbe4c63d9	-0.19959964
207	0x3d85559e	0.06510471
208	0x3e0c4154	0.13696796
209	0xbe18242a	-0.14857545
210	0xbd35036d	-0.04419272
211	0xbcbcee97	-0.023062987
212	0x3e6d9381	0.232008
213	0xbc8d2413	-0.017229116
214	0xbe0d87f5	-0.13821395
215	0x3e4189a2	0.18900159
216	0xbda5bbe2	-0.080924764
217	0x3c9b9496	0.01899175
218	0x3e424ea8	0.18975317
219	0xbd9deeb8	-0.077115476
220	0xbe2824a4	-0.16420227
221	0xbd07c9c0	-0.03315139
222	0xbd3d943b	-0.04628394
223	0x3e3eeca9	0.18644966
224	0xbdc4185e	-0.0957496
225	0xbd10d83b	-0.035362463
226	0xbd8f51f1	-0.06998051
227	0x3c66fb60	0.014098018
228	0xbdbe672f	-0.092970245
229	0xbe1631a2	-0.14667371
230	0x3b619649	0.0034421852
231	0xbe520ac5	-0.20511921
232	0x3d9ad164	0.07559469
233	0xbda83a62	-0.08214261
234	0x3dfdee52	0.123989716
235	0x3dfc5ec5	0.12322763
236	0x3d8082fe	0.06274985
237	0xbd98f424	-0.07468441
238	0xbe672f58	-0.22576654
239	0xbcc2d625	-0.023783753
240	0xbd926bba	-0.071494535
241	0xbe60a138	-0.219365
242	0xbac28f7a	-0.0014843785
243	0x3d94507c	0.07241914
244	0x3d1f8370	0.038943708
245	0x3de80fa7	0.113311104
246	0xbd8de572	-0.06928529
247	0x3b55d726	0.003262946
248	0xbd692ce8	-0.05692759
249	0xbdb516f7	-0.08842271
250	0x3d87d0ea	0.06631644
251	0x3e1606a6	0.14650974
252	0xbe5872a0	-0.21137476
253	0xbe3ef412	-0.18647793
254	0x3de03066	0.10946731
255	0xbe17c1b8	-0.14819992

linear2.bias f4 [65]
0	0x3dc0803d	0.093994595
1	0xbbeedf41	-0.0072897975
2	0x3c38e3cd	0.011284781
3	0xbdb09795	-0.08622662
4	0xbd966c97	-0.073449306
5	0x3be0daa8	0.0068620034
6	0xbd3af6ec	-0.04564564
7	0x3d85f00a	0.065399244
8	0xbddd2b76	-0.10799305
9	0x3cd0139d	0.025399977
10	0xbbc89146	-0.0061208336
11	0x3ca351ce	0.019936468
12	0x3b1dece2	0.0024097492
13	0x3ce829ac	0.028340183
14	0x3d00413e	0.03131222
15	0xbd31472f	-0.043280777
16	0x3d8c28d4	0.06843725
17	0xbd0fe3e8	-0.035129458
18	0x3d37e519	0.04489622
19	0xbd92aecd	-0.07162247
20	0x3ddf7209	0.10910422
21	0xbd8d49a6	-0.06898813
22	0x3d9bf022	0.07614161
23	0xbd5ee451	-0.05441696
24	0x3bf754b7	0.0075479406
25	0x3a58bac0	0.0008267574
26	0x3ad2fd1c	0.0016097161
27	0xbc1135e7	-0.008862949
28	0xbd675b09	-0.056483302
29	0x3d3de2bf	0.04635882
30	0xbd83737d	-0.06418512
31	0x3d9ee0e4	0.07757738
32	0xbd223601	-0.039602283
33	0xbd79848b	-0.06091742
34	0xbd7621e1	-0.060090903
35	0xbd54328f	-0.05180603
36	0xbcafe950	-0.021473557
37	0xbd9cf324	-0.07663563
38	0xbd856924	-0.065141946
39	0xbc56bbfc	-0.013106342
40	0xbcf759bd	-0.030194158
41	0xbc9e0ff8	-0.019294724
42	0xbd456bb3	-0.048198413
43	0xbca60a3f	-0.020268558
44	0x3daeb1a9	0.0852998
45	0xbd0717f3	-0.032981824
46	0x3bec0b70	0.007203512
47	0xbde005fb	-0.10938641
48	0xbd928845	-0.071548976
49	0x3cfadcee	0.030622926
50	0x3c1491fd	0.009068009
51	0x3d115c9e	0.035488717
52	0xbd8f6366	-0.070013806
53	0x3d36bb60	0.04461229
54	0x3d125757	0.035727825
55	0x3d8e1402	0.0693741
56	0xbd140798	-0.036140054
57	0xbc5ef507	-0.013608224
58	0x3d219141	0.039445166
59	0xbda62c1a	-0.081138805
60	0xbc728ffb	-0.014804835
61	0x3bb7dc65	0.00561099
62	0xbd6b84b4	-0.057499602
63	0x3caf6991	0.021412643
64	0x3cac43fb	0.02102851
